best_simple_rsvp_model.pth (torch, 144158 bytes, 6 tensors)

model.0.weight f4 [128, 200]
0	0x3dbcdcc2	0.09221794
1	0xbe1578ed	-0.14596911
2	0x3dae07e7	0.08497601
3	0x3c971040	0.018440366
4	0xbda6d20b	-0.08145531
5	0xbbea71dd	-0.007154687
6	0x3dcbb8f5	0.09947387
7	0x3d244ec2	0.04011417
8	0xbe19a388	-0.15003788
9	0xbc8498bc	-0.01618611
10	0xbadd59fa	-0.0016887777
11	0x3efaadd4	0.48960745
12	0xbe5e3b84	-0.21702391
13	0xbe052554	-0.13002521
14	0x3c2a0984	0.010378245
15	0x3d9e362b	0.077251755
16	0xbd97caa7	-0.074117
17	0xbd7f0013	-0.06225593
18	0x3c10f4d6	0.008847436
19	0xbd8ad112	-0.06778158
20	0x3dea47d9	0.11439485
21	0xbdebaa0c	-0.11507043
22	0x3e15827b	0.14600556
23	0xb9d712e6	-0.00041022076
24	0x3c93a070	0.018020838
25	0x3d5aa35e	0.053378455
26	0x3bbf08ba	0.0058298977
27	0x3d054eca	0.032545842
28	0xbd951296	-0.072789356
29	0xbba8570b	-0.0051373295
30	0xbd192bb5	-0.037395198
31	0xbe88438e	-0.2661404
32	0x3dfa161e	0.1221125
33	0x3e15ee93	0.1464179
34	0x3c35134e	0.011051966
35	0x3c48ef24	0.012264047
36	0x3cec2fd2	0.028831396
37	0x3e039c8b	0.12852685
38	0xbdb82f27	-0.089933686
39	0xbb407a28	-0.0029369686
40	0xbc0d9fbe	-0.008644043
41	0x3e99702f	0.29968402
42	0xbd8c3803	-0.06846621
43	0xbe337755	-0.1752599
44	0xbcbac303	-0.022798067
45	0x3db34152	0.08752693
46	0xbd844f66	-0.064604566
47	0xbc253abe	-0.010084806
48	0x3e28f961	0.1650138
49	0xbd5749ba	-0.052560546
50	0x3cddf2e9	0.027093368
51	0x3e924401	0.28567508
52	0xbe1fc3d6	-0.15602049
53	0xbdc8519c	-0.09781191
54	0xbd001e29	-0.031278763
55	0xbd2efdd2	-0.04272253
56	0xbdb58e83	-0.088650726
57	0x3d29c990	0.04145199
58	0x3e31d1e1	0.17365219
59	0x38f6f5ed	0.00011776001
60	0x3e102dbc	0.14079946
61	0x3dcc7584	0.09983352
62	0x3d953929	0.07286293
63	0x3e9a2d66	0.3011276
64	0xbdd7098e	-0.10499869
65	0x3db252fb	0.087072335
66	0x3dec2e51	0.11532272
67	0x3db7be4c	0.08971843
68	0x3e32ae8d	0.17449398
69	0xbd80808c	-0.06274518
70	0xbd84a838	-0.06477398
71	0xbdc1d98b	-0.09465321
72	0xbd2d99e7	-0.0423831
73	0x3e0cb895	0.13742287
74	0xbdf956ec	-0.12174782
75	0x3c90cb2d	0.017675007
76	0x3d1a2f2d	0.037642647
77	0x3d5ab8b6	0.05339881
78	0x3dd0ec71	0.102013476
79	0x3d5e47ac	0.05426757
80	0xbd5e1e88	-0.054228336
81	0x3d61111e	0.054947965
82	0xbc832142	-0.01600707
83	0xbe1305a3	-0.14357619
84	0xbb9cd831	-0.004786514
85	0xbde712b1	-0.11282862
86	0x3d16aca9	0.036785755
87	0x3d43c403	0.047794353
88	0x3cbd2561	0.023089113
89	0xbd995cfe	-0.0748844
90	0xbd924c05	-0.07143406
91	0xbd3b46cc	-0.045721814
92	0xbdf2aa0e	-0.118488416
93	0xbe217380	-0.15766716
94	0x3d84a37d	0.064764954
95	0x3e206797	0.15664516
96	0x3c4371d9	0.011928999
97	0xbc339823	-0.010961565
98	0xbd9b0bcf	-0.07570612
99	0x3d7bc4a9	0.061466847
100	0xbdbcd1ac	-0.09219679
101	0xbb809a69	-0.003924657
102	0xbe1d93ee	-0.15388462
103	0xbd8e0bc4	-0.06935838
104	0xbe288517	-0.1645702
105	0xbe18985d	-0.14901872
106	0xbe37d610	-0.17952752
107	0xbd98f3e0	-0.074683905
108	0xbd8d1a92	-0.068898335
109	0xbd5beae6	-0.053690813
110	0xbc97b22b	-0.018517574
111	0x3c832e14	0.016013183
112	0xbdb13276	-0.08652203
113	0xbe166d97	-0.14690243
114	0xbd8774da	-0.066140845
115	0x3dc045ea	0.09388335
116	0x3d94f892	0.072739735
117	0x3c85a368	0.01631327
118	0xbdc9b09e	-0.0984814
119	0xbbc7c507	-0.0060964855
120	0xbcda5db4	-0.02665601
121	0xbe555999	-0.2083496
122	0x3d413937	0.047173705
123	0xbc78fb12	-0.015196579
124	0x3d6a2dc6	0.05717256
125	0x3df2fea6	0.118649766
126	0x3e50ad8b	0.20378701
127	0xbca6e868	-0.020374492
128	0xbe4370e2	-0.1908603
129	0x3de893e2	0.113563314
130	0x3da701eb	0.08154663
131	0x3d9a82dc	0.07544491
132	0x3d6b3364	0.057422057
133	0x3d0d8231	0.03454799
134	0x3ce25295	0.027627269
135	0x3e618771	0.22024323
136	0x3ddcdcf6	0.107843325
137	0x3db6f31f	0.089330904
138	0xbcb8b563	-0.02254743
139	0x3df101f0	0.11767948
140	0xbd0b4fb0	-0.034011543
141	0xbd5237e5	-0.051322836
142	0x3b854510	0.004067071
143	0xbe20cfe4	-0.15704304
144	0x3e0527a2	0.130034
145	0x3d02ad76	0.031903706
146	0x3c693eb2	0.014236139
147	0x3e11017f	0.14160727
148	0xbe228d2a	-0.15874162
149	0x3e08f1cf	0.13373493
150	0xbdf4b143	-0.119478725
151	0xbd869d73	-0.06573
152	0xbdd2de39	-0.10296292
153	0xbd9da0ac	-0.07696661
154	0xbe227889	-0.15866293
155	0xbb0d2358	-0.002153596
156	0xbdfd19a5	-0.12358407
157	0xbe3a6b17	-0.18204914
158	0xbdfabc3c	-0.12242934
159	0x3dab4a61	0.08363796
160	0xbd820f8e	-0.06350623
161	0xbc956455	-0.018236319
162	0xbdd5e090	-0.104432225
163	0xbdeac434	-0.11463204
164	0xbdb03832	-0.086044684
165	0xbe2f3598	-0.17110288
166	0xbdf3f7c3	-0.11912491
167	0xbe511798	-0.20419157
168	0xbd944a71	-0.07240761
169	0xbd8c4ba9	-0.068503685
170	0x3cfe6f5e	0.031058963
171	0x3b56e37f	0.0032789407
172	0xbdb5fcad	-0.08886085
173	0xbb36ab59	-0.0027873127
174	0xbe1c8e6e	-0.15288708
175	0xbdbf2266	-0.09332733
176	0xbdd58f60	-0.10427737
177	0xbe17a58f	-0.1480925
178	0xbdd6f0cf	-0.10495149
179	0xbdcfa96b	-0.10139736
180	0x3d58e11a	0.05294905
181	0xbd76ca28	-0.060251385
182	0x3b96c4ff	0.0046011205
183	0x3c673549	0.014111825
184	0xbda59377	-0.08084767
185	0xbc2a68d9	-0.010400974
186	0xbc6a92b3	-0.014317202
187	0x3ca8e4af	0.020616857
188	0xbcfef328	-0.031121805
189	0x3d17d916	0.037072264
190	0x3ca86d9e	0.020560082
191	0x3d050556	0.032475792
192	0xbd5efc4b	-0.054439824
193	0x3c3b61b2	0.011436867
194	0xbd7d1a65	-0.06179275
195	0x3d7ffa95	0.062494833
196	0xb9bd52b1	-0.000361105
197	0xbda48801	-0.08033753
198	0x3c6a0675	0.014283766
199	0xbcae2768	-0.021259025
200	0xbd8c8b18	-0.068624675
201	0x3c1ce88b	0.009576927
202	0xbd835670	-0.06412971
203	0xbdd28dfa	-0.10280986
204	0x3c8ce1d9	0.017197536
205	0x3e1ac2f0	0.15113425
206	0x3c2b9a4e	0.010473801
207	0xbd55e338	-0.052218646
208	0xbd803d4f	-0.06261694
209	0x3d0f3479	0.03496215
210	0x3d894989	0.06703479
211	0x3e3bedf1	0.18352486
212	0xbdd5cd7c	-0.10439584
213	0x3b0d7506	0.0021584644
214	0xbc1e009f	-0.009643703
215	0x3dd496fd	0.10380361
216	0x3d6b4bd2	0.057445355
217	0xbd810fea	-0.063018635
218	0xbc8383bc	-0.016054027
219	0xbdb5098b	-0.08839711
220	0x3e179f55	0.14806874
221	0xbc34fd7a	-0.011046762
222	0x3e22df2a	0.15905443
223	0x3e864d29	0.26230744
224	0x3d79a4e6	0.060948275
225	0x3daa6af1	0.08321179
226	0x3d820fa2	0.06350638
227	0x3dc3892f	0.0954765
228	0xbd1a4661	-0.037664775
229	0xbd672b2e	-0.056437664
230	0xbd8be0a8	-0.06829959
231	0xbccf3d65	-0.02529783
232	0xbc955290	-0.018227845
233	0xbc361a83	-0.011114719
234	0x3dfeb426	0.12436704
235	0x3db7f95a	0.08983107
236	0xbde07749	-0.10960252
237	0xbdbf789a	-0.09349175
238	0x3ceea817	0.029132886
239	0xbd35a26c	-0.04434435
240	0x3c77e7e7	0.015130973
241	0x3e3ccba6	0.1843706
242	0xbd567004	-0.05235292
243	0xbea59a13	-0.32344112
244	0x3e2dca42	0.16971686
245	0x3df4075b	0.119154654
246	0xbbcbfe75	-0.006225402
247	0xbd693b36	-0.056941234
248	0x3e8ff07f	0.2811317
249	0xbd84d050	-0.06485045
250	0xbe1b1e49	-0.15148272
251	0xbddf3f27	-0.10900717
252	0xbda2a338	-0.07941288
253	0xbe50860d	-0.20363636
254	0xbe0811db	-0.13288061
255	0x3dcc5435	0.09976999

model.0.bias f4 [128]
0	0x3c05d6ea	0.008168915
1	0x3d3a4f24	0.04548563
2	0xbc88a71e	-0.01668125
3	0xbccbebc3	-0.024892693
4	0x3c8a285c	0.016864948
5	0x3d2513eb	0.0403022
6	0xbd648b9a	-0.055797197
7	0x3c7bad6e	0.015361173
8	0x3cfe9cd1	0.031080635
9	0xbc808473	-0.015688157
10	0xbd3a2385	-0.04544403
11	0xbc57ce8d	-0.013171804
12	0x3ceb12bf	0.028695462
13	0xbd859147	-0.0652185
14	0xbc8cefe6	-0.017204236
15	0x3d5ac3d6	0.05340942
16	0x3b951037	0.004549052
17	0xbd2d345f	-0.042286273
18	0xbc7caa41	-0.015421451
19	0x3c7f835a	0.0155952815
20	0xbd5fbf49	-0.054625783
21	0xbd6ff113	-0.058579516
22	0xbd53bfbc	-0.051696524
23	0xbd0831a9	-0.033250485
24	0x3ce66ed6	0.028129023
25	0xbcef7118	-0.029228732
26	0x3d64a8bc	0.05582498
27	0x3dac0165	0.083987035
28	0x3d33a625	0.04385962
29	0xbc4111a8	-0.011783995
30	0xbc2fe898	-0.010736607
31	0x3dad07f0	0.084487796
32	0xbd2d012e	-0.042237453
33	0x3c8b5b56	0.017011326
34	0x3cd5d3a8	0.026101902
35	0xbd029174	-0.031876996
36	0xbd03b197	-0.032151785
37	0x3bf22191	0.0073892553
38	0x3d05e340	0.032687426
39	0x3b02a87e	0.0019936855
40	0xbce6900c	-0.028144859
41	0xbd4f17d2	-0.050559826
42	0xbd46f1fa	-0.04857061
43	0xbd42f681	-0.047598366
44	0x3cb760af	0.02238497
45	0x3b022070	0.001985576
46	0x3c632ff8	0.013866417
47	0xbd0097a7	-0.031394627
48	0x3d2b70af	0.04185551
49	0x3d6b024b	0.057375234
50	0xbb5ac9f1	-0.0033384527
51	0x3c9645f8	0.01834391
52	0x3d2c6cda	0.042095996
53	0x3d37f61f	0.044912454
54	0x3d0300ce	0.03198319
55	0xbc1b1e06	-0.009467607
56	0xbd00e9b3	-0.031472873
57	0x3c1c5ce7	0.009543634
58	0xbd3352bf	-0.043780085
59	0x3d5986fe	0.053107254
60	0x3cfaf28c	0.030633233
61	0xbd0ed34a	-0.03486947
62	0xbc14ee57	-0.009090028
63	0xbd8eb1b6	-0.069674894
64	0x3b85ba53	0.0040810495
65	0x3d06911c	0.03285323
66	0xbd8498fd	-0.06474493
67	0x3c723994	0.0147842355
68	0xbc3d7193	-0.011562723
69	0x3c91c41e	0.017793711
70	0x3cbfebbd	0.023427838
71	0x3c430167	0.01190219
72	0x3ce15555	0.02750651
73	0x3cd35c8b	0.025800964
74	0xbc591ed7	-0.013251982
75	0x3caa293d	0.020771617
76	0x3d0a0b1d	0.033702005
77	0xbd91ed85	-0.071253814
78	0xbd2ecfdd	-0.042678703
79	0xbd99948a	-0.07499035
80	0x3c446e4f	0.01198919
81	0xbbd1fa26	-0.006407994
82	0x3d7e8a77	0.06214377
83	0xbd2debf4	-0.04246135
84	0xbd8e6d07	-0.06954389
85	0x3ca9cbe5	0.020727107
86	0xbc64958c	-0.01395167
87	0x3cc30cef	0.023809878
88	0xbcc1167c	-0.023570292
89	0xbca9f211	-0.02074531
90	0x3cf61ecb	0.03004398
91	0x3d036ba5	0.03208508
92	0x3d6d6bb7	0.057964053
93	0xbd521a9e	-0.051294915
94	0x3d169997	0.03676757
95	0x3d05e3d2	0.03268797
96	0x3c99d3ac	0.01877769
97	0x3dd3d425	0.10343198
98	0x3bea8fa5	0.007158237
99	0xbd8a8372	-0.067633525
100	0x3d62b922	0.055352338
101	0xbc1862de	-0.0093009155
102	0x3d5ff6e9	0.05467883
103	0xbd42a192	-0.047517367
104	0xbc18b374	-0.009320129
105	0x3cce8575	0.025210122
106	0xbd9cd739	-0.07658238
107	0x3d382f89	0.044967208
108	0xbd8bf173	-0.06833162
109	0xbcbb60c8	-0.022873297
110	0x3d8b09e9	0.067889996
111	0x3a51a392	0.0007997091
112	0x3d1dade5	0.038495917
113	0xbd7bb44e	-0.06145125
114	0xbd094d35	-0.033520896
115	0x3a855ddf	0.001017507
116	0xbd897e30	-0.067135215
117	0x3d07cc7f	0.033154007
118	0xbc7c479b	-0.015397931
119	0x3b5fbec0	0.0034140795
120	0x3d40a49b	0.04703198
121	0xbdbd051a	-0.09229489
122	0x3d1a4b3c	0.037669405
123	0x3d6c30b7	0.057663646
124	0xbbe67334	-0.0070327763
125	0xbccc7441	-0.024957778
126	0x3d7687c6	0.060188077
127	0x3b17db35	0.002317143

model.3.weight f4 [64, 128]
0	0xbda3a12e	-0.07989727
1	0x3dfe1229	0.124058075
2	0x3d95dde1	0.07317711
3	0x3cc0ce4d	0.023535872
4	0x3d2fcca2	0.042919762
5	0x3c39e35c	0.011345711
6	0xbd46770c	-0.048453376
7	0xbd90f919	-0.070787616
8	0x3d46db30	0.048548877
9	0xbca8b2a3	-0.020592993
10	0xbe940e33	-0.28917083
11	0xbe5c2d0c	-0.21501559
12	0xbce66af9	-0.02812718
13	0x3e180c4d	0.14848442
14	0x3c2e74c8	0.01064796
15	0x3bd9885a	0.006638569
16	0x3cd860e8	0.026413396
17	0x3db9befa	0.09069629
18	0x3dd9a303	0.10626795
19	0x3d985105	0.07437328
20	0xbcc1af96	-0.023643296
21	0xba867d07	-0.001026065
22	0xbd4429a9	-0.047891293
23	0x3cabaa22	0.02095515
24	0x3d932d13	0.071863316
25	0x3dee7db5	0.116450705
26	0xbd5bb790	-0.053641856
27	0x3c965f98	0.01835613
28	0x3d40a5d4	0.047033146
29	0xbda2897b	-0.079363786
30	0x3da1bb45	0.07897047
31	0x3d2b5137	0.0418255
32	0xbdbccfa1	-0.092192896
33	0xbd4bc219	-0.049745653
34	0xbd57ad2b	-0.05265538
35	0x3d8f455f	0.06995653
36	0xbc0d4b00	-0.008623838
37	0x3d44588d	0.04793601
38	0x3da19787	0.0789023
39	0x3d985f9d	0.07440112
40	0xbcd59858	-0.02607362
41	0x3cbd7f40	0.023131967
42	0xbcb03b31	-0.0215126
43	0x3df74a90	0.120747685
44	0x3de41ff8	0.1113891
45	0xbe379676	-0.1792849
46	0xbd13508e	-0.035965495
47	0x3e0bdf92	0.13659504
48	0xbe080b3f	-0.1328554
49	0x3a0cef3a	0.00053762237
50	0x3cdde55d	0.027086908
51	0xbd9b49dc	-0.07582447
52	0xbe383f25	-0.17992838
53	0xbc860f74	-0.01636479
54	0x3d188b3b	0.037242156
55	0xba997f90	-0.001171099
56	0x3cefd440	0.029276013
57	0x3e7af2f7	0.24506746
58	0xbe17a1d6	-0.1480783
59	0xbd483efd	-0.048888195
60	0xbac117db	-0.0014731841
61	0xbe15e111	-0.14636637
62	0xbae37e48	-0.001735636
63	0x3e13b41a	0.14424172
64	0xbd843db6	-0.06457083
65	0xbdca6004	-0.09881595
66	0xbd72c296	-0.059267603
67	0x3bdb6b37	0.0066961306
68	0x3d87c152	0.0662867
69	0x3d218d34	0.039441302
70	0xbccf2bdf	-0.025289474
71	0x3df7fee6	0.12109165
72	0xbd12817f	-0.03576803
73	0x3c1f5ef3	0.0097272275
74	0xbd48c41c	-0.04901515
75	0x3ea3a1b3	0.31959304
76	0x3e54ee3e	0.20794007
77	0xbd9bfe52	-0.07616867
78	0x3c2a9950	0.010412529
79	0x3cb30f30	0.021857828
80	0xbc7d8675	-0.015473952
81	0x3df2508a	0.11831768
82	0xbd8892e3	-0.066686414
83	0xbe242e37	-0.16033255
84	0xbb6f3665	-0.0036500928
85	0xbc33e75b	-0.010980452
86	0x3b2e1e8f	0.0026568507
87	0x3bb7b480	0.005606234
88	0xbce78e38	-0.028266057
89	0xbdd0a95a	-0.10188551
90	0xbe2a1b15	-0.16611893
91	0xbcc96acc	-0.024587058
92	0xbd990771	-0.074721225
93	0x3e759ebb	0.23986332
94	0xbd82017a	-0.06347938
95	0xbd711c12	-0.05886466
96	0x3e380df6	0.17974076
97	0x3d5ccf2c	0.053908512
98	0xbe08cff8	-0.13360584
99	0xbc4446e8	-0.011979796
100	0xbeac0ec8	-0.33605027
101	0x3e723de5	0.23656423
102	0xbd3390f6	-0.043839417
103	0x3d026070	0.03183025
104	0x3bcc1a29	0.0062287045
105	0xbd977d83	-0.07396986
106	0x3c551e84	0.013007764
107	0x3c3ecbae	0.011645241
108	0x3ccb6510	0.024828464
109	0x3bf5b2e5	0.0074981325
110	0x3e048ca5	0.12944277
111	0xbcbfe38a	-0.023423929
112	0xbde633f7	-0.1124038
113	0xbd572866	-0.05252876
114	0xbdf238bf	-0.1182723
115	0xbe9e9a31	-0.30977014
116	0x3d85c81b	0.06532308
117	0xbd95bfc7	-0.07311969
118	0x3d3661bb	0.044526797
119	0xbc449ff8	-0.01200103
120	0xbe09e7aa	-0.13467279
121	0xbc98d708	-0.018657222
122	0x3c92000c	0.017822288
123	0x3e1e5e99	0.15465774
124	0x3d5e9b7b	0.054347496
125	0xbd7df547	-0.062001493
126	0x3d5dd982	0.05416251
127	0x3dcc5ba2	0.09978415
128	0xbddd2050	-0.10797179
129	0xbd06149b	-0.032734495
130	0x3e64c00c	0.22338885
131	0xbdc73b9c	-0.097281665
132	0x3b62e060	0.0034618601
133	0xbe4938f4	-0.19650632
134	0xbc002ea8	-0.007823624
135	0x3b34e53a	0.002760245
136	0xbbbf9d40	-0.005847603
137	0xbdb4e9aa	-0.088336304
138	0xbdbed1b1	-0.09317339
139	0xbe352377	-0.1768931
140	0x3d48a192	0.04898221
141	0xbd5a5c2a	-0.05331055
142	0xbd93d31c	-0.07218
143	0x3ce8002c	0.028320394
144	0x3da933d7	0.08261841
145	0xbc438b48	-0.011935063
146	0x3e1330b9	0.14374055
147	0x3ccd3bac	0.025052868
148	0xbe5493a4	-0.20759445
149	0xbe06dd5b	-0.13170378
150	0xbd4184af	-0.047245678
151	0xbd3fe91e	-0.046853177
152	0x3cab4160	0.020905197
153	0x39c4d536	0.00037542888
154	0x3d48084f	0.04883605
155	0xbcdfbc4b	-0.027311465
156	0x3cd11981	0.025524857
157	0xbd5aa65a	-0.0533813
158	0x3c1be2d0	0.0095145255
159	0x3e3206b1	0.17385365
160	0xbdae2452	-0.08503021
161	0x3d7bb922	0.061455853
162	0x3bc03a8b	0.005866354
163	0x3d800137	0.06250232
164	0x3d9eb641	0.07749606
165	0x3d78c663	0.06073607
166	0x3d8072bd	0.062718846
167	0x3d92b792	0.071639195
168	0x3d8f7513	0.07004752
169	0x3e373401	0.17890932
170	0xbe0ea539	-0.13930215
171	0x3ccd59e1	0.025067272
172	0xb9f56aff	-0.0004680976
173	0xbc9ec0e6	-0.01937909
174	0x387c0000	6.0081482e-05
175	0xbe3a1f9a	-0.18176118
176	0xbe496f5b	-0.19671385
177	0x3e0e6a6e	0.13907787
178	0xbe9294c4	-0.28629124
179	0x3da6b37d	0.081397034
180	0xbd336d33	-0.043805312
181	0xbd90c354	-0.07068506
182	0xbca1b204	-0.019738205
183	0xbe119a79	-0.14219083
184	0xbd34e705	-0.04416563
185	0x3e65e96d	0.22452326
186	0x3c8f6f55	0.017509142
187	0x3d9aebc1	0.07564498
188	0x3db3e547	0.087839656
189	0xbe95a378	-0.2922628
190	0xbda7dcb6	-0.08196394
191	0x3e033564	0.12813336
192	0x3cdb6da4	0.02678568
193	0xbebaa948	-0.36457276
194	0x3c0b1820	0.008489639
195	0x3ddaa43d	0.10675857
196	0x3d27fafa	0.041010834
197	0x3d4891ae	0.048967056
198	0x3d0189b4	0.031625465
199	0xbd4dab05	-0.050211925
200	0x3d53f6d4	0.051749066
201	0x3ddc04f9	0.10743136
202	0xbd34ca6d	-0.04413836
203	0x3ebe7f82	0.37206656
204	0x3dde4ab2	0.10854091
205	0x3d35da76	0.044397794
206	0x3d822c25	0.06356076
207	0xbd5e42a1	-0.05426276
208	0xbdb3387b	-0.08751007
209	0x3d583e6a	0.052793898
210	0xbdbe9042	-0.09304859
211	0xbe4a6f4e	-0.19769022
212	0x3dc05f3d	0.09393165
213	0x3e00068d	0.12502499
214	0xbe2b2d31	-0.16716458
215	0xbd834dfc	-0.06411359
216	0xbda93caa	-0.08263524
217	0x3e03be51	0.12865569
218	0xbcb08c29	-0.021551209
219	0x3da5360f	0.080669515
220	0x3d55c01a	0.052185155
221	0x3e3940d3	0.18091135
222	0xbd37a6c7	-0.044836786
223	0x3e5124b0	0.20424151
224	0x3df2d5ef	0.11857211
225	0x3d25c1e3	0.040468108
226	0x3d3d1d27	0.04617038
227	0x3d9f8d1d	0.07790587
228	0xbd9eda17	-0.07756441
229	0x3d478664	0.04871215
230	0xbd42bc30	-0.04754275
231	0xbdb1b9d0	-0.08678019
232	0xbd07f139	-0.033189032
233	0xbd8bd5ed	-0.068279125
234	0xbdaf5281	-0.08560658
235	0x3db63558	0.08896893
236	0x3d871a1f	0.06596779
237	0x3d4de1c5	0.05026414
238	0x3e0dd00a	0.13848892
239	0xbe0f2439	-0.13978662
240	0xbde7480d	-0.112930395
241	0x3d67b3a6	0.05656781
242	0xbe05caa6	-0.13065585
243	0xbcb91e03	-0.022597319
244	0x3d82dd49	0.06389863
245	0x3daac825	0.08338956
246	0xbdf2c011	-0.1185304
247	0x3b995270	0.004679017
248	0xbd6a37e6	-0.057182215
249	0xbe460b45	-0.19340236
250	0xbcec2766	-0.02882738
251	0xbdb9dee0	-0.09075713
252	0x3d5e8d7a	0.05433414
253	0x3db13ff9	0.0865478
254	0x3c452478	0.012032621
255	0x3e319546	0.173421

model.3.bias f4 [64]
0	0x3d99eb6d	0.07515607
1	0x3dd6272e	0.10456692
2	0x3e17ed6f	0.14836667
3	0xbc4a9aa4	-0.012365971
4	0xbce6108d	-0.028084064
5	0xbe023d15	-0.12718613
6	0xbde6dc62	-0.112725034
7	0x3c363ef2	0.011123406
8	0xbddd3fcd	-0.10803185
9	0x3d6018e3	0.054711234
10	0x3d70b422	0.058765538
11	0x3d770d51	0.060315434
12	0x3db201bc	0.08691737
13	0xbd699aa1	-0.05703223
14	0x3c98bd9b	0.018645098
15	0x3d704fd8	0.058669895
16	0x3c81417d	0.015778298
17	0x3c938769	0.018008905
18	0x3bb840f3	0.005622977
19	0xbc7c3813	-0.0153942285
20	0x3c4f0dc6	0.012637561
21	0x3dc9304a	0.098236635
22	0xbd9de5fd	-0.077098824
23	0xbbd37e14	-0.0064542387
24	0x3dd83824	0.10557583
25	0x3d4b38b1	0.049614612
26	0xbdbd9298	-0.09256476
27	0xbd3bac5a	-0.045818664
28	0xbc7476ea	-0.014920929
29	0x3c8a65f9	0.016894327
30	0x3d1cea29	0.03830925
31	0x3caa9384	0.020822294
32	0xbde0dda0	-0.109797716
33	0xbcd434d9	-0.025904106
34	0x3d9de562	0.07709767
35	0x3c8305bd	0.015993947
36	0x3ce3ff80	0.027831793
37	0x3d0fca47	0.035105016
38	0xbd51ed89	-0.05125192
39	0x3dee6240	0.116398335
40	0x3c6f7d2a	0.014617244
41	0xbd4f30be	-0.050583594
42	0xbbdcb5bb	-0.006735531
43	0xbd00b8bd	-0.03142618
44	0x3e33e47a	0.17567626
45	0xbd7bcd99	-0.06147537
46	0xbd322741	-0.043494467
47	0x3d9f98a6	0.07792787
48	0x3db41087	0.08792215
49	0xbdd2475a	-0.102675155
50	0x3dd9255e	0.1060283
51	0x3d41353f	0.04716992
52	0xbdce0c30	-0.10060918
53	0x3dc667e2	0.09687783
54	0xbc7575d8	-0.014981709
55	0x3db63673	0.08897104
56	0xbd51089a	-0.051033594
57	0x3e053ac7	0.13010703
58	0xbde4c9a4	-0.111712724
59	0xbda34fb2	-0.07974185
60	0xbd3f899c	-0.046762094
61	0x3bd56a71	0.006512933
62	0x3d3ba4be	0.045811407
63	0x3d3943f9	0.04523084

model.6.weight f4 [20, 64]
0	0xbd34fb8d	-0.04418521
1	0xbec35c31	-0.38156274
2	0x3ecf4295	0.40480486
3	0xbdd9f22c	-0.10641894
4	0xbba9ea06	-0.0051853685
5	0x3def2286	0.11676507
6	0x3e4c802c	0.19970769
7	0xbeba714c	-0.36414564
8	0x3e36e97f	0.17862509
9	0x3d6c81a4	0.057740822
10	0xbe68b2da	-0.22724476
11	0xbe66f3e5	-0.22553976
12	0xbe84f02f	-0.25964496
13	0x3e0eb8ca	0.13937679
14	0xbdd73e76	-0.1050996
15	0xbc27c17f	-0.010239004
16	0x3e85f82a	0.26165897
17	0x3e04655b	0.12929289
18	0x3dab77ad	0.08372436
19	0x3ebe8ed1	0.37218335
20	0x3e3f85cd	0.18703385
21	0x3e937c77	0.28805897
22	0xbe141f8a	-0.14465156
23	0xbd55b090	-0.052170336
24	0xbc6d4d93	-0.014483827
25	0x3ccf4d63	0.025305456
26	0x3db65467	0.08902817
27	0xbf3095ff	-0.68978876
28	0x3db01e13	0.08599486
29	0xbe85d066	-0.26135558
30	0x3ca3e1e6	0.020005178
31	0x3c38a079	0.011268728
32	0x3c69b576	0.014264455
33	0x3ce5bd97	0.028044505
34	0x3cf87727	0.030330254
35	0x3e2dea4e	0.16983911
36	0xbe04f7ba	-0.12985125
37	0x3e6c2e5f	0.23064564
38	0xbd792023	-0.060821664
39	0x3d0efa07	0.034906413
40	0x3ed7ab65	0.4212295
41	0xbe093d5f	-0.13402317
42	0xbf309a20	-0.68985176
43	0xbd827238	-0.06369442
44	0x3e57adcd	0.21062393
45	0xbf153f0c	-0.58299327
46	0xbcc4f6c1	-0.024043443
47	0xbecde03e	-0.40210146
48	0xbe786d15	-0.24260361
49	0xbcb68ab5	-0.022282938
50	0x3d407f71	0.046996538
51	0xbe4a53d2	-0.19758537
52	0xbe7d0693	-0.24709539
53	0xbe11ec12	-0.1425021
54	0x3e36561a	0.17806283
55	0xbf189325	-0.59599525
56	0xbf0419cb	-0.51601857
57	0x3e8c978a	0.27459365
58	0x3dfc2cd5	0.123132385
59	0xbdde015b	-0.10840102
60	0xbe881457	-0.26578018
61	0xbdebd1a1	-0.11514593
62	0xbd08d0f6	-0.033402406
63	0xbd61f5fa	-0.055166222
64	0x3e03499b	0.12821047
65	0xbcdc3a08	-0.02688314
66	0x3e69db65	0.22837599
67	0xbdf9b4c4	-0.121926814
68	0xbbd7c8ab	-0.006585201
69	0x3deaf82d	0.11473117
70	0x3dc54ec0	0.09634161
71	0x3e19234e	0.14954874
72	0xbec85b6b	-0.39132246
73	0x3d108067	0.035278704
74	0x3e6099a6	0.21933612
75	0x3c8ba169	0.01704474
76	0xbc4c1753	-0.012456733
77	0xbe2a7e50	-0.16649747
78	0xbc495114	-0.012287397
79	0xbe2908e6	-0.165073
80	0x3de5936b	0.11209758
81	0xbf06df41	-0.5268441
82	0x3c5da8c1	0.013529004
83	0xbc15c0c2	-0.009140195
84	0x3d2db7ab	0.042411488
85	0x3df209ee	0.118183
86	0xbc21f8f6	-0.009886017
87	0xbd326c0b	-0.04356007
88	0xbedee704	-0.43535626
89	0xbe984a9a	-0.29744416
90	0xbd2cabc3	-0.042155992
91	0xbda5548a	-0.08072765
92	0x3c29cae9	0.010363319
93	0xbd6defa8	-0.058089882
94	0xbdec071d	-0.11524794
95	0x3e220905	0.15823753
96	0x3d9df444	0.077126056
97	0x3dc893ed	0.097938396
98	0x3d463260	0.048387885
99	0x3e5ac90c	0.21365756
100	0x3d78f46b	0.06077997
101	0x3e29cddd	0.16582437
102	0xbd8436a6	-0.06455736
103	0x3e1bf851	0.15231444
104	0x3ed60918	0.41803813
105	0xbd290246	-0.041261934
106	0x3d48a7dd	0.048988212
107	0xbd907b28	-0.0705474
108	0x3e64eb45	0.22355373
109	0x3c94ec8a	0.018179197
110	0x3dfa8b97	0.12233656
111	0xbd348204	-0.044069305
112	0x3af596aa	0.0018736918
113	0xbda383c3	-0.07984116
114	0x3dcf1e15	0.101131596
115	0xbd493f4b	-0.049132627
116	0x3da7af1a	0.08187695
117	0xbde903e4	-0.11377695
118	0xbe18b062	-0.14911035
119	0x3e137de4	0.14403492
120	0x3d115782	0.035483845
121	0x3dfeb9fd	0.12437818
122	0x3dd9cfa0	0.106353045
123	0x3d4666fd	0.04843806
124	0x3e0e0a22	0.13871053
125	0x3e08707c	0.1332416
126	0x3d691975	0.056909043
127	0xbdde5f01	-0.10857964
128	0x3dff443c	0.124641865
129	0xbe19d7cf	-0.1502373
130	0x3d71a4ba	0.058994986
131	0xbf11bdf4	-0.5693047
132	0xbd412d3a	-0.047162272
133	0xbe973982	-0.29536062
134	0x3d8df2f8	0.06931108
135	0x3e27440b	0.1633455
136	0x3d88d5d5	0.0668141
137	0xbd2f6225	-0.042818207
138	0x3d50f181	0.051011566
139	0x3da9e5b3	0.08295765
140	0x3d55531d	0.052081216
141	0x3b76bac5	0.0037647944
142	0x3e1e2bdf	0.15446423
143	0xbcb973ab	-0.022638163
144	0x3d33a182	0.043855198
145	0x3d945a10	0.072437406
146	0x3d6bf897	0.05761012
147	0x3d83ac6b	0.064293705
148	0x3dce7241	0.10080386
149	0x3de0faa3	0.10985305
150	0xbd84a372	-0.06476487
151	0x3d4dd039	0.050247405
152	0x3da4eaff	0.080526344
153	0x3cd63da4	0.02615244
154	0xbddc1f34	-0.10748139
155	0x3e9367e9	0.28790215
156	0x3da1a834	0.0789341
157	0xbe32b870	-0.1745317
158	0xbd64f8e2	-0.055901416
159	0x3e1eb903	0.15500264
160	0x3ea11fb2	0.31469494
161	0x3e0ed296	0.1394752
162	0xbe0a027a	-0.13477507
163	0x3e26bbb7	0.16282545
164	0x3e3697b8	0.17831314
165	0x3cd2b82c	0.025722586
166	0xbd227f6b	-0.039672296
167	0x3e03f58c	0.12886637
168	0xbdb92080	-0.09039402
169	0x388e0d8b	6.77361e-05
170	0xbd9fb030	-0.07797277
171	0xbdecfa20	-0.11571145
172	0x3e1b2386	0.1515027
173	0xbaf7de1e	-0.00189108
174	0x3ddbe10d	0.107362844
175	0xbd818fdf	-0.06326269
176	0xbcfb8661	-0.030703725
177	0x3d17fcc6	0.037106298
178	0xbe4db1ba	-0.20087329
179	0xbe7bef20	-0.24602938
180	0xbe24c7fd	-0.16091914
181	0x3e1421d4	0.1446603
182	0x3e0432ea	0.12910047
183	0x3d436ff1	0.047714178
184	0xbe20f689	-0.15719046
185	0x3b88cf53	0.0041751056
186	0x3d6ebc43	0.05828501
187	0x3d2694b6	0.040669166
188	0xbf21d612	-0.6321727
189	0x3daaf67b	0.08347794
190	0xbf622d46	-0.8835033
191	0xbc9bc708	-0.019015804
192	0xbe13f1fa	-0.14447775
193	0xbd8b504e	-0.06802426
194	0x3e1add8f	0.1512358
195	0xbcfde855	-0.030994574
196	0x3e001c62	0.12510827
197	0xbcfa50fb	-0.030556193
198	0xbdecd566	-0.1156414
199	0xbeb1ed5e	-0.3475141
200	0x3d44ad84	0.04801704
201	0xbdc5075e	-0.09620546
202	0xbc88a673	-0.016680932
203	0xbc97c52f	-0.018526642
204	0x3dacb961	0.08433796
205	0x3e40f419	0.18843116
206	0xbf4ad12c	-0.7922542
207	0xbf1ac4e1	-0.60456663
208	0xbddc6683	-0.1076174
209	0x3da47b24	0.080313
210	0x3e005682	0.12533
211	0x3b9e7cb3	0.0048366426
212	0x3ce88a36	0.028386217
213	0x3e38ac33	0.18034439
214	0x3d256a5b	0.04038463
215	0xbe1c9d38	-0.15294349
216	0x3dbf7bcf	0.093497865
217	0xbdb71176	-0.08938877
218	0x3d90181d	0.07035849
219	0x3ddb3201	0.10702897
220	0xbd54d5e2	-0.051961787
221	0xbca34c63	-0.019933885
222	0x3c2f083b	0.010683115
223	0x3e04f576	0.12984261
224	0x3df284f2	0.118417636
225	0x3e18ab46	0.14909086
226	0x3d656904	0.056008354
227	0x3db73328	0.08945304
228	0x3e1776d1	0.14791419
229	0x3e7a33f7	0.24433886
230	0x3e10ecd9	0.1415285
231	0x3df40223	0.1191447
232	0xbe55a749	-0.20864595
233	0xbedda8df	-0.432929
234	0xbc0b3ec6	-0.008498853
235	0xbd0c9107	-0.034317996
236	0x3e083d49	0.13304628
237	0x3ce10d14	0.027472056
238	0xbed07700	-0.4071579
239	0x3c8f95e1	0.017527523
240	0xbe16db00	-0.1473198
241	0xbd15b1b3	-0.03654642
242	0x3e41f62b	0.18941562
243	0x3db06c18	0.08614367
244	0x3c355893	0.011068481
245	0x3e1117dc	0.14169258
246	0xbea6d2e4	-0.32582772
247	0x3e06d1fc	0.1316604
248	0xbd4c93f5	-0.04994579
249	0x3d45690f	0.048195895
250	0xbe06e2de	-0.1317248
251	0xbdb2e9b4	-0.087359816
252	0x3c671904	0.014105085
253	0x3d01e921	0.03171647
254	0x3c56338b	0.013073812
255	0x3da35ea5	0.079770364

model.6.bias f4 [20]
0	0x3dbb32e0	0.09140563
1	0x3dd6ce9b	0.104886256
2	0x3cfb3584	0.030665167
3	0x3d3a0fdf	0.045425292
4	0xba271de1	-0.0006374997
5	0x3e1773e4	0.14790303
6	0x3e04a2e0	0.12952757
7	0x3d831b3e	0.064016804
8	0x3d881ac1	0.06645728
9	0x3d3615fa	0.044454552
10	0xbd115ed1	-0.035490815
11	0x3c953212	0.018212352
12	0x3ba0858c	0.0048987325
13	0xbb8353e7	-0.0040078047
14	0xbcfe563c	-0.03104698
15	0x3c3f29f3	0.011667716
16	0x3c665159	0.014057481
17	0xbc46a82b	-0.012125055
18	0xba954b97	-0.0011390325
19	0x39ff7b1f	0.00048729122
