best_simple_rsvp_model.pth (torch, 144158 bytes, 6 tensors)

model.0.weight f4 [128, 200]
-0.0031128377 0.013023779 -0.008969635 0.055839546 0.04692737 0.03617025 -0.00651554 0.020500906
-0.004668623 -0.037612416 0.013837062 -0.04478526 -0.045938946 -0.069225915 0.02077581 0.00268206
0.056927644 -0.05480634 0.056971245 0.062566854 -0.061028276 0.006280206 -0.05298788 -0.026544012
0.012058586 -0.0085054375 -0.0039687753 0.049299166 0.047715984 -0.06789781 0.012097038 -0.025890674
0.029112779 -0.055013373 -0.056686215 0.032379232 0.019572973 -0.027943715 -0.021313544 0.060457774
0.01089339 -0.05633773 0.056779973 -0.013179362 -0.040754665 0.04409381 0.007828593 0.06253623
0.045309 0.02005092 -0.036027163 0.0080317035 -0.025779635 -0.023694716 -0.06145648 0.0034602955
-0.025714923 0.05936881 -0.050425276 -0.015320867 -0.03765651 -0.0076735914 -0.0063819885 0.010926835
0.0032231212 -0.008787308 -0.009816878 0.018732801 -0.042804737 -0.06143965 0.04203102 -0.019569583
-0.012795217 -0.0638916 -0.024742115 -0.056445867 0.019854434 0.01189784 -0.038304146 0.011961296
-0.050220694 0.06392234 -0.049746282 -0.053948514 0.0060519874 -0.06251611 -0.0016009063 0.0622425
-0.010186709 -0.016176552 0.034157455 0.021162592 -0.017575126 -0.037534863 -0.030299067 0.069809325
-0.024609074 -0.03415141 -0.05770071 -0.007449448 -0.05825708 -0.055128083 0.02980297 -0.02388784
-0.036724083 -0.011377651 -0.004863426 -0.051293973 -0.014076635 0.06883272 0.047914974 0.0042779967
0.03356862 0.062739186 -0.06057342 -0.043566577 0.022186466 0.014180884 -0.040625073 -0.037856176
0.019462109 -0.058913827 0.06017386 -0.028223716 -0.060551733 0.04078068 -0.009246547 0.038033694
-0.024097107 -0.006852269 0.064989425 -0.0079609975 -0.06860481 -0.054355226 0.016470678 0.06099946
-0.06654054 0.059622966 -0.041328914 0.011521816 -0.04176393 0.025240816 0.053845577 -0.015866518
0.052592844 -0.013481613 -0.012067426 -0.014722139 -0.031332836 -0.059691995 -0.034845278 0.05122695
-0.029228345 -0.024559114 0.045763545 -0.020251192 0.017112844 0.0063474104 -0.013629068 -0.033671573
-0.020502377 -0.010376666 -0.017463986 0.033263333 -0.06594892 0.02163829 -0.013663072 -0.061793134
0.03190589 0.02540829 -0.05348008 -0.019382458 -0.03270163 -0.05867275 0.059768148 -0.058809202
-0.012616027 -0.04126466 -0.027405012 0.052577563 0.031815752 0.0077626556 -0.008803245 0.050054543
-0.024561651 -0.031584073 0.059067093 0.045521423 0.05353932 0.050555408 0.037206307 0.04660341
0.027708225 -0.037333142 0.032950625 -0.0006226823 -0.06894926 -0.018290207 -0.03778728 0.059306167
-0.063450426 0.2532241 -0.11155437 -0.48046857 -0.106025286 0.010364715 -0.14556918 -0.13993205
0.18359682 0.013891774 -0.042704448 -0.3347015 0.14639375 0.102417015 0.07141813 -0.11205184
-0.0030116676 0.009203761 0.061186213 0.05739729 -0.032766834 -0.38105726 0.021622239 0.046582457
-0.043303404 -0.025143707 0.044899806 0.019564172 -0.2104428 -0.016811125 -0.05463471 -0.13569108
0.06364717 0.13221571 -0.0532882 -0.10983227 -0.04354753 0.08134331 0.03750851 0.07570221
0.005053103 0.0014703346 0.05252151 0.13198072 -0.0011141031 0.008329399 -0.013287823 -0.0010913938
0.030946383 0.053874835 -0.062161427 -0.2945285 0.10089187 0.21926314 -0.0686023 -0.0877406
00000000: c000 4cbb b061 553c 60f5 12bc 02b8 643d
00000010: ea36 403d 4227 143d 5080 d5bb 84f1 a73c
00000020: 40fb 98bb 7a0f 1abd d8b4 623c c070 37bd
00000030: 7a2a 3cbd 51c6 8dbd 0832 aa3c 80c5 2f3b
00000040: f62c 693d 9d7c 60bd ae5a 693d 0d23 803d
00000050: c9f8 79bd 30ca cd3b d209 59bd d472 d9bc
00000060: 6091 453c 645a 0bbc 800c 82bb eced 493d
00000070: d671 433d 020e 8bbd a832 463c ae18 d4bc
00000080: ec7d ee3c b455 61bd ce2f 68bd 16a0 043d
00000090: 8057 a03c 38ea e4bc be99 aebc 92a2 773d
000000a0: 307a 323c 64c2 66bd 1e92 683d 40ee 57bc
000000b0: 5dee 26bd b69b 343d 8043 003c ff12 803d
000000c0: ee95 393d d441 a43c 3891 13bd 6897 033c
000000d0: d02f d3bc 6c1b c2bc cab9 7bbd 20c6 623b
000000e0: 1aa8 d2bc b62c 733d bc8a 4ebd 6004 7bbc
000000f0: b63d 1abd c072 fbbb 0020 d1bb 7806 333c
00000100: 003b 533b a4f8 0fbc f8d6 20bc 8875 993c
00000110: 0554 2fbd 24a8 7bbd b828 2c3d 6450 a0bc
00000120: 08a3 51bc 99d9 82bd faaf cabc c833 67bd
00000130: c4a5 a23c 28ef 423c cfe4 1cbd 50f9 433c
00000140: 37b4 4dbd b7e9 823d c2c2 4bbd 1ef9 5cbd
00000150: c04f c63b 7208 80bd 80d5 d1ba fef1 7e3d
00000160: 28e6 26bc b084 84bc b0e8 0b3d 2c5d ad3c
00000170: b6f9 8fbc 28be 19bd c035 f8bc 31f8 8e3d
00000180: f898 c9bc 59e2 0bbd 9457 6cbd 801a f4bb
00000190: fa9e 6ebd fccd 61bd 5c25 f43c 6eb0 c3bc
000001a0: fe6b 16bd 5469 3abc 605d 9fbb a119 52bd
000001b0: b0a1 66bc 2bf8 8c3d 7e42 443d 702e 8c3b
000001c0: 407f 093d 677d 803d d61b 78bd de72 32bd
000001d0: 64c0 b53c f056 683c 7a66 26bd 140f 1bbd
000001e0: 006f 9f3c a04f 71bd de78 763d 6c35 e7bc
000001f0: 1805 78bd a409 273d d47e 17bc 38c9 1b3d
00000200: 4c67 c5bc 0089 e0bb 2d19 853d d86e 02bc
00000210: ae80 8cbd 96a3 5ebd 84ed 863c 92da 793d
00000220: 6846 88bd 3637 743d 8248 29bd 00c6 3c3c
00000230: a810 2bbd d4c5 ce3c 2e8d 5c3d 80fa 81bc
00000240: 986b 573d fce1 5cbc 74b6 45bc 2035 71bc
00000250: dc56 00bd 987f 74bd ecb9 0ebd 5ad3 513d
00000260: 4870 efbc 3230 c9bc 8e72 3b3d d4e5 a5bc
00000270: 3c30 8c3c f0fd cf3b 744c 5fbc 34eb 09bd
00000280: 9af4 a7bc e402 2abc a210 8fbc 223f 083d
00000290: 3a10 87bd c842 b13c 14db 5fbc cc1a 7dbd
000002a0: c0af 023d 0c25 d03c ee0d 5bbd f6c7 9ebc
000002b0: 25f2 05bd d652 70bd 72cf 743d ebe1 70bd
000002c0: 74b3 4ebc 2205 29bd 7a80 e0bc 925b 573d
000002d0: 3c51 023d e05d fe3b 7c3b 10bc fe05 4d3d
000002e0: 8435 c9bc 4d5e 01bd 56f0 713d ac74 3a3d
000002f0: 0c4c 5b3d 3013 4f3d a465 183d 38e3 3e3d
00000300: 5cfc e23c a3ea 18bd 3cf7 063d 803b 23ba
00000310: 4535 8dbd 58d5 95bc d6c6 1abd 06eb 723d
00000320: 4cf2 81bd 97a6 813e 9e76 e4bd faff f5be
00000330: c923 d9bd c4d0 293c 1610 15be 594a 0fbe
00000340: ce00 3c3e 539a 633c dcea 2ebd ff5d abbe
00000350: 3ee8 153e 03c0 d13d ab43 923d 6f7b e5bd
00000360: 665f 45bb 5fcb 163c 659e 7a3d 6c19 6b3d
00000370: 8436 06bd f019 c3be 1f21 b13c 3fcd 3e3d
00000380: e95e 31bd 2dfa cdbc dce8 373d 0b45 a03c
00000390: 517e 57be 7cb7 89bc a5c8 5fbd 9af2 0abe
000003a0: 7359 823d 8e63 073e ba44 5abd beef e0bd
000003b0: e55e 32bd 5297 a63d 86a2 193d c309 9b3d
000003c0: 8094 a53b 3eb8 c03a cb20 573d f425 073e
000003d0: 1907 92ba 0878 083c 2bb5 59bc 190d 8fba
000003e0: 4583 fd3c dcab 5c3d fb9c 7ebd 71cc 96be
000003f0: 66a0 ce3d 8486 603e 5d7f 8cbd 58b1 b3bd

model.0.bias f4 [128]
0.03191904 0.04344635 -0.010200353 0.035204884 -0.00090420246 -0.056999233 0.024019608 0.0003522709
-0.06795931 0.051114056 0.017594218 0.018921928 0.031007458 -0.020254944 -0.04496178 -0.07523818
-0.010547834 -0.051699962 -0.07341438 -0.017017212 -0.013585529 0.0024134666 0.017639408 0.00673721
-0.074194364 -0.06352692 -0.0047862222 0.07234033 -0.0036297434 -0.026402041 0.04767978 0.059062466
-0.057652198 -0.027488684 -0.019430585 -0.06432337 -0.06779094 -0.049247265 0.047649737 0.05149547
-0.084863536 -0.043508247 -0.045888674 0.034002345 0.061158367 -0.016870806 -0.020167205 -0.0062434794
0.038441233 -0.08260671 -0.018266119 0.040084217 -0.013526339 0.05027687 0.058525536 -0.027940461
0.010333893 -0.025915805 -0.05874281 -0.004670794 -0.07310692 0.052527443 0.02254796 -0.06767075
0.04499764 0.026401082 -0.07576884 0.023510465 -0.010314374 0.041504953 -0.029043512 -0.049364313
0.057605524 -0.03511324 0.07526573 0.025853418 -0.007383576 -0.02237927 -0.06261319 -0.040285155
-0.00840677 -0.005275444 0.022557281 0.050802622 -0.034022786 0.027030084 0.01083694 -0.03657277
0.00056226377 0.05807056 -0.03715705 -0.049323767 -0.04340474 0.004661912 -0.04919158 0.022617586
-0.07031359 0.08691054 0.008334168 -0.07658072 0.041939337 -0.06590701 0.053862717 0.05332649
0.0053080637 -0.024412194 0.045938615 0.0797781 0.0038400814 0.03106294 -0.03847977 0.013228744
-0.04029514 -0.0024116188 0.028170865 -0.061058782 0.09660373 0.008458192 -0.024218481 -0.008390084
0.03133122 -0.0023983195 -0.055182494 -0.015776265 0.009610802 -0.005107517 0.0073137823 -0.067040145
00000000: 8abd 023d cdf4 313d 621f 27bc ff32 103d
00000010: 0008 6dba 0778 69bd c5c4 c43c 00b1 b839
00000020: 402e 8bbd f95c 513d c021 903c 2902 9b3c
00000030: 5a03 fe3c b2ed a5bc d829 38bd 7a16 9abd
00000040: d3d0 2cbc 57c3 53bd 475a 96bd ae67 8bbc
00000050: d795 5ebc 402b 1e3b 8580 903c d0c3 dc3b
00000060: 37f3 97bd 671a 82bd bed5 9cbb 2b27 943d
00000070: fde0 6dbb 1849 d8bc df4b 433d 7ceb 713d
00000080: b624 6cbd f32f e1bc e42c 9fbc f9bb 83bd
00000090: fad5 8abd 80b7 49bd 5f2c 433d eaec 523d
000000a0: efcc adbd b435 32bd c3f5 3bbd 0b46 0b3d
000000b0: 3281 7a3d a534 8abc b235 a5bc 1a96 ccbb
000000c0: 8e74 1d3d b52d a9bd d4a2 95bc 592f 243d
000000d0: 949d 5dbc 1fef 4d3d 79b8 6f3d 65e3 e4bc
000000e0: 7d4f 293c 624d d4bc 4d9c 70bd 760d 99bb
000000f0: 15b9 95bd 0427 573d 80b6 b83c f696 8abd
00000100: 724f 383d 1547 d83c b22c 9bbd 0599 c03c
00000110: 9ffd 28bc 1901 2a3d a9ec edbc 3c32 4abd
00000120: c5f3 6b3d e7d2 0fbd eb24 9a3d 8cca d33c
00000130: edf1 f1bb bb54 b7bc 583b 80bd 0c02 25bd
00000140: 8dbc 09bc a2dd acbb 0cca b83c 6916 503d
00000150: 7a5b 0bbd 326e dd3c 6c8d 313c 54cd 15bd
00000160: e264 133a 65db 6d3d fe31 18bd b807 4abd
00000170: 2bc9 31bd f4c2 983b 1c7d 49bd 8448 b93c
00000180: 9200 90bd 27fe b13d 098c 083c 5ad6 9cbd
00000190: 95c8 2b3d 41fa 86bd 279f 5c3d e16c 5a3d
000001a0: 44ef ad3b 15fc c7bc 212a 3c3d b362 a33d
000001b0: e0a9 7b3b b577 fe3c f79c 1dbd 60bd 583c
000001c0: 840c 25bd 400c 1ebb 96c6 e63c c618 7abd
000001d0: 2dd8 c53d 3b94 0a3c d665 c6bc 9076 09bc
000001e0: 2a55 003d 202d 1dbb 0a07 62bd 3a3d 81bc
000001f0: a076 1d3c f55c a7bb 74a8 ef3b 584c 89bd

model.3.weight f4 [64, 128]
0.044922672 0.07150772 -0.2846986 0.021440184 -0.004905008 -0.03749254 -0.18812706 0.07493212
0.063263245 -0.08912259 0.08463452 0.02633552 -0.07392595 -0.08682982 -0.10993306 -0.08042342
-0.10837857 -0.06805407 0.004908112 0.08212831 -0.018330859 0.0671827 0.00442882 0.0072411746
-0.006473784 0.06922618 0.20859045 -0.09650202 -0.16750845 0.066295445 -0.067524225 -0.0330153
0.11979551 0.18134962 -0.089929074 -0.007941736 0.06226196 -0.06819311 -0.046109486 -0.19684511
-0.010268338 -0.059867367 0.014255792 0.11755859 0.16897482 -0.063696496 -0.050567817 0.01980206
-0.020332394 -0.026067078 -0.08322026 0.060573258 -0.03540761 0.018357513 -0.0017909361 0.009636596
0.24799758 0.092657164 0.03596098 0.0036571624 -0.0365131 -0.0071734786 0.05559837 0.057045273
-0.07543447 0.08599142 0.16345058 0.029295482 0.06440263 0.114211075 0.005768316 -0.06624906
-0.012469228 0.037723087 -0.020848844 0.0358721 0.098463014 -0.060505603 -0.017215662 0.09037293
0.021480016 0.014583081 0.0815359 0.072470546 -0.07139428 -0.18051518 0.0647682 -0.06561017
0.1461909 0.11877213 0.071780734 0.054009534 -0.0152686825 -0.05569572 0.020767756 0.14764696
0.06258505 0.0876849 0.06752215 -0.023930548 -0.22160642 0.119652435 -0.04704886 -0.019626636
0.034142256 0.0035012935 0.072621815 0.052992623 -0.056406222 0.02795761 -0.07729209 -0.053822853
0.059575733 -0.060538154 0.01593183 -0.1489137 0.14433998 0.0010625422 0.01768613 0.014443733
0.008138031 0.016392045 -0.037049536 -0.01951474 -0.13566718 -0.014430113 0.111185074 0.07429164
0.03288471 0.077496596 -0.021104487 0.01683119 0.040822305 0.009160429 0.06659367 -0.021330416
0.07630988 -0.2701212 0.07343926 -0.0646404 0.07730088 -0.054645065 0.040486313 0.065469556
-0.165244 -0.31169134 0.068162106 0.029759645 -0.016136466 0.06677098 0.0404307 0.06421026
0.0034624978 -0.03820657 0.18290488 -0.081053354 0.060583174 -0.12872256 -0.000837027 -0.0778009
0.00023558759 0.061394315 -0.009999561 -0.011687345 -0.065408565 -0.071641475 -0.07354275 -0.107958615
0.06622831 0.034807075 -0.0031040907 -0.16482086 -0.03386589 -0.28192112 -0.10293901 0.046014007
0.028482713 0.0043433765 0.041952528 0.012301229 -0.022404179 0.06811249 -0.058045793 -0.033166938
-0.03595207 0.06432243 -0.18990037 -0.22206903 0.019464096 -0.032934073 0.061670862 0.038606968
0.049109943 -0.016575074 -0.2397693 -0.016911663 0.12418128 0.10981742 0.13162991 0.1973805
-0.2070211 -0.062122144 0.31974593 -0.08502063 -0.14254531 0.06432062 -0.03542677 0.14440185
-0.03529509 -0.078161836 -0.042627785 0.10188906 0.0850488 -0.07472787 -0.061737992 0.13992561
-0.016572235 0.29387343 0.0017201155 0.13325495 -0.07158558 -0.051774625 0.06775178 -0.05827878
-0.020506583 -0.14761715 -0.2780598 -0.09957245 -0.06062341 0.037124213 -0.05832515 -0.09868959
-0.082110964 -0.08458285 -0.12476566 -0.12778886 0.032304697 -0.1776104 0.0033687055 0.041099574
0.13486554 0.04824437 -0.43328333 -0.005918279 0.10991998 0.009912076 -0.2227921 -0.016395466
-0.010885238 0.019563057 0.01793696 0.036253512 -0.05348636 -0.06717081 -0.21551639 -0.065117106
00000000: d600 383d a472 923d 04c4 91be 53a3 af3c
00000010: 30ba a0bb c791 19bd 61a4 40be 0376 993d
00000020: 2990 813d e885 b6bd dd54 ad3d 97bd d73c
00000030: 7d66 97bd d5d3 b1bd 9624 e1bd 09b5 a4bd
00000040: 95f5 ddbd ef5f 8bbd 3ad4 a03b e332 a83d
00000050: 992a 96bc 1597 893d a31f 913b 6047 ed3b
00000060: 0922 d4bb 75c6 8d3d bc98 553e daa2 c5bd
00000070: 5687 2bbe e8c5 873d 244a 8abd 0d3b 07bd
00000080: 5957 f53d b7b3 393e bc2c b8bd 0e1e 02bc
00000090: 6606 7f3d d4a8 8bbd 4ddd 3cbd c491 49be
000000a0: 883c 28bc 7c37 75bd 2091 693c 8fc2 f03d
000000b0: bc07 2d3e 4f73 82bd 3320 4fbd ee37 a23c
000000c0: 1f90 a6bc a08a d5bc 626f aabd aa1b 783d
000000d0: 9207 11bd 7f62 963c d8bd eaba d0e2 1d3c
000000e0: 14f3 7d3e 0ac3 bd3d d24b 133d 01ad 6f3b
000000f0: c38e 15bd 800f ebbb 1ebb 633d 4ea8 693d
00000100: 637d 9abd 451c b03d 975f 273e 14fd ef3c
00000110: 87e5 833d 7fe7 e93d 2404 bd3b 96ad 87bd
00000120: bc4b 4cbc 8683 1a3d 32cb aabc a0ee 123d
00000130: faa6 c93d b9d4 77bd dc07 8dbc 7115 b93d
00000140: dcf6 af3c e0ed 6e3c 4bfc a63d 706b 943d
00000150: 2a37 92bd f9d8 38be 31a5 843d a05e 86bd
00000160: 11b3 153e cd3e f33d c701 933d 1a39 5d3d
00000170: 7f29 7abc 3221 64bd 2421 aa3c c430 173e
00000180: 972c 803d 2494 b33d 0e49 8a3d ff09 c4bc
00000190: cbec 62be 560c f53d 4eb6 40bd 0ac8 a0bc
000001a0: c0d8 0b3d f575 653b bfba 943d cb0e 593d
000001b0: 360a 67bd 5c07 e53c 514b 9ebd 5a75 5cbd
000001c0: af05 743d dbf6 77bd 7883 823c d57c 18be
000001d0: dccd 133e 0045 8b3a 81e2 903c 68a5 6c3c
000001e0: 6055 053c 9c48 863c 41c1 17bd 60dd 9fbc
000001f0: 56ec 0abe 486c 6cbc 00b5 e33d 3726 983d
00000200: 1eb2 063d 89b6 9e3d 51e3 acbc 90e1 893c
00000210: 4a35 273d a015 163c 4362 883d 20bd aebc
00000220: 5b48 9c3d 534d 8abe 5367 963d 3062 84bd
00000230: ec4f 9e3d 81d3 5fbd fad4 253d e714 863d
00000240: b935 29be 0296 9fbe 9398 8b3d 80ca f33c
00000250: 9f30 84bc 39bf 883d a99a 253d ab80 833d
00000260: 13eb 623b 7e7e 1cbd 6b4b 3b3e 4dff a5bd
00000270: 1026 783d d9cf 03be ee6b 5bba 1456 9fbd
00000280: 1008 7739 9b78 7b3d 33d5 23bc 477c 3fbc
00000290: edf4 85bd c4b8 92bd 959d 96bd 6819 ddbd
000002a0: b5a2 873d dd91 0e3d 006e 4bbb cdc6 28be
000002b0: f6b6 0abd f757 90be b0d1 d2bd 2f79 3c3d
000002c0: 9454 e93c e252 8e3b 6ad6 2b3d 188b 493c
000002d0: f888 b7bc 907e 8b3d 6dc1 6dbd 0eda 07bd
000002e0: 7a42 13bd 7abb 833d 3e75 42be 1066 63be
000002f0: 2b73 9f3c e1e5 06bd 969a 7c3d 5722 1e3d
00000300: 8227 493d 73c8 87bc 1586 75be 548a 8abc
00000310: c152 fe3d f5e7 e03d fec9 063e 1d1e 4a3e
00000320: 57fd 53be ca73 7ebd bdb5 a33e 4c1f aebd
00000330: 66f7 11be 87ba 833d a91b 11bd 14de 133e
00000340: 9691 10bd 5013 a0bd 799a 2ebd 36ab d03d
00000350: 112e ae3d ed0a 99bd fae0 7cbd a948 0f3e
00000360: 7fc2 87bc 9476 963e 8075 e13a fc73 083e
00000370: 769b 92bd a111 54bd 72c1 8a3d bbb5 6ebd
00000380: 6cfd a7bc f328 17be db5d 8ebe a4ec cbbd
00000390: 4150 78bd 8f0f 183d 5ae6 6ebd c51d cabd
000003a0: cb29 a8bd c639 adbd 2385 ffbd 15db 02be
000003b0: ee51 043d 80df 35be 80c5 5c3b 0758 283d
000003c0: 311a 0a3e e39b 453d 50d7 ddbe 1fee c1bb
000003d0: ba1d e13d 4366 223c 9d23 64be c94f 86bc
000003e0: ff57 32bc b442 a03c 88f0 923c 907e 143d
000003f0: 8314 5bbd da90 89bd 54b0 5cbe 1e5c 85bd

model.3.bias f4 [64]
-0.07953964 0.05850101 0.08599381 0.0070471764 0.055010963 0.016996313 0.115919895 0.034396406
-0.0028665315 -0.09352999 -0.080636516 -0.017933525 0.10254278 -0.013353124 -0.050755475 -0.0704011
0.075062186 0.021666855 0.04796198 -0.08775318 0.021274028 -0.06448827 -0.0026312775 0.078193136
-0.04991571 -0.026580416 -0.00076464476 -0.013367834 -0.03013379 0.036279522 -0.05799826 -0.05382082
-0.042980175 0.044624913 -0.12714578 -0.055886704 0.07385592 0.009299767 -0.039383065 -0.12421292
0.006630747 0.058149103 0.054867987 0.014698077 -0.0013842947 0.07198251 -0.006535351 -0.03169843
-0.06450623 -0.023814874 0.007930483 -0.00783032 0.067124225 0.036754828 0.013807555 0.11936347
-0.060752254 0.15420234 -0.045109373 0.036961656 -0.13510036 0.0003182497 -0.023892097 0.05724832
00000000: aee5 a2bd c19e 6f3d 861d b03d 00ec e63b
00000010: 2d53 613d da3b 8b3c 6967 ed3d 3fe3 0c3d
00000020: 6bdc 3bbb a78c bfbd c224 a5bd 54e9 92bc
00000030: f301 d23d 10c7 5abc f9e4 4fbd 742e 90bd
00000040: 34ba 993d b07e b13c c873 443d f0b7 b3bd
00000050: df46 ae3c 6d12 84bd 8371 2cbb b923 a03d
00000060: 6a74 4cbd 2cbf d9bc 7172 48ba c204 5bbc
00000070: 23db f6bc d699 143d 958f 6dbd 3873 5cbd
00000080: fb0b 30bd 9dc8 363d 8132 02be 75e9 64bd
00000090: c641 973d 0d5e 183c 2350 21bd 5863 febd
000000a0: bd46 d93b c12d 6e3d 41bd 603d 34d0 703c
000000b0: 3971 b5ba 916b 933d 7f26 d6bb 37d6 01bd
000000c0: d81b 84bd 6917 c3bc dbee 013c be4a 00bc
000000d0: 6d78 893d 3b8c 163d 1539 623c d674 f43d
000000e0: 5bd7 78bd 38e7 1d3e 9bc4 38bd 1b65 173d
000000f0: c057 0abe c0da a639 5cb9 c3bc 377d 6a3d

model.6.weight f4 [20, 64]
-0.21188274 0.089141734 -0.3968125 -0.26019806 0.10986318 -0.03340258 -0.25078097 -0.5147123
0.24228023 0.20126154 -0.26785257 -0.24723084 -0.6742041 -0.24257621 -0.14764988 -0.3558795
0.071084574 0.34165075 0.18952076 -0.32158422 0.1109467 -0.062698565 0.13599284 -0.41099676
-0.24979657 -0.5275165 0.029482787 0.19853263 0.013210295 0.22711982 0.056120284 0.17157589
0.11010471 -0.23839676 0.13179862 -0.08240194 -0.13407709 -0.4363803 -0.59590924 -0.050663296
-0.021629645 0.25655395 -0.14393072 0.18653987 -0.01553552 -0.20597342 -0.09706621 -0.10292667
-0.030232413 -0.4451754 0.08778417 -0.1591029 0.3540915 0.10552153 0.25767466 -0.044617116
0.08954366 -0.039191026 0.21497159 0.06171661 -0.2889269 0.12161734 0.15354095 -0.32319367
-0.052083272 0.051133275 -0.122762725 -0.0044323215 0.1696729 0.2140994 -0.11510532 -0.013902317
-0.2405434 -0.31654125 0.059162922 0.1306277 0.035196207 -0.009287725 0.08602372 -0.052024264
0.07176882 0.23885877 -0.04182297 -0.113118015 0.0701686 0.022511205 0.13655312 -0.022519236
0.07828775 0.149665 -0.21468556 -0.2724435 -0.31649923 0.08313752 -0.23790039 0.2354596
-0.8833897 -0.02563261 0.0390808 0.033275995 0.05682494 0.11842195 0.11262018 -0.045962736
-0.019577762 -0.060966935 0.1268453 0.15689823 0.13092357 -0.14999636 -0.16850285 -0.00495967
-0.05461782 0.06156238 -0.27185732 0.103728324 0.04276076 0.23968485 0.008673445 0.017163599
0.0013765405 0.060988966 -0.07197907 0.054067213 0.07415705 0.07711146 0.17858583 -0.033459824
-0.2400142 -0.16429782 -0.16938733 0.1057106 0.10529407 0.117159896 -0.27030045 0.17130585
0.22241612 0.1034883 0.014008144 0.08898677 0.08281453 -0.016559696 -0.46100938 -0.024545385
0.23306364 0.11789465 0.0117280325 -0.07189851 -0.008137031 -0.018444208 -0.42819482 -0.0470318
0.09833572 0.05021524 0.051052824 0.110081576 0.10190841 0.026462022 -0.013301929 0.099019885
0.07622094 -0.09567264 0.12247861 -0.032395255 0.061515708 0.2672178 -0.05189322 -0.004554763
-0.61453015 0.14893885 -0.24861293 0.15712981 0.09294344 0.082779154 0.09088752 -0.24656992
0.021142306 -0.16050704 0.054164693 0.026945658 0.11445078 -0.05182962 0.17583774 -0.29603708
-0.5753351 -0.26004228 -0.09415806 0.1573202 -0.027555376 0.13373153 0.09093839 0.3064371
-0.12239076 0.31126893 -0.13792239 0.1337449 0.2386065 0.34495687 0.17349352 -0.21750572
0.049934953 0.20444348 -0.3013388 0.26079357 0.023229798 0.030859344 0.0642702 0.016204756
0.24698618 -0.08973548 0.15061207 -0.005164744 0.04245854 -0.047804046 -0.21403898 -0.17411277
-0.44668502 0.09223004 -0.06900077 -0.16719176 -0.08153441 -0.23599096 0.14134371 0.1829077
0.075824246 -0.23206912 0.086465605 0.018631963 -0.17403206 0.048910186 -0.081804834 -0.11039702
-0.078998305 0.14187212 0.03189788 -0.5120113 0.133047 0.010009462 0.044941917 0.19394141
0.037690744 0.047811773 0.013849349 0.12111389 -0.053393226 -0.19823673 -0.36455846 0.04948886
0.02960832 0.12110964 0.22837538 0.12429726 -0.23688684 0.11297549 0.021209514 0.023669727
00000000: caf7 58be f18f b63d 022b cbbe ae38 85be
00000010: f2ff e03d 25d1 08bd 5d66 80be 2fc4 03bf
00000020: 4f18 783e 8117 4e3e f923 89be 152a 7dbe
00000030: a498 2cbf e665 78be 8831 17be d635 b6be
00000040: ca94 913d d9ec ae3e bb11 423e b0a6 a4be
00000050: 0638 e33d 1b68 80bd b541 0b3e 2b6e d2be
00000060: acca 7fbe 520b 07bf e385 f13c 234c 4b3e
00000070: fe6f 583c 1992 683e 62de 653d 97b1 2f3e
00000080: 947e e13d 481e 74be 38f6 063e 59c2 a8bd
00000090: 814b 09be 3d6d dfbe 828d 18bf 5184 4fbd
000000a0: a730 b1bc 0a5b 833e 9362 13be 4f04 3f3e
000000b0: b288 7ebc b2ea 52be a6ca c6bd 38cb d2bd
000000c0: f7a9 f7bc 08ee e3be 30c8 b33d dfeb 22be
000000d0: 7b4b b53e ac1b d83d efed 833e 70c0 36bd
000000e0: ab62 b73d c586 20bd 8321 5c3e 8eca 7c3d
000000f0: 3aee 93be 8312 f93d d739 1d3e a479 a5be
00000100: 4555 55bd 2071 513d 066b fbbd 023d 91bb
00000110: bcbe 2d3e e03c 5b3e 57bc ebbd 8bc6 63bc
00000120: 0251 76be b211 a2be d254 723d 45c3 053e
00000130: e629 103d 8b2b 18bc 342d b03d 6517 55bd
00000140: 88fb 923d 6597 743e 904e 2bbd 6baa e7bd
00000150: 8eb4 8f3d 6b69 b83c 95d4 0b3e 437a b8bc
00000160: 5455 a03d c841 193e 88d6 5bbe b77d 8bbe
00000170: 300c a2be 0144 aa3d 299c 73be 521c 713e
00000180: d425 62bf 7bfb d1bc 3013 203d 694c 083d
00000190: 45c1 683d 3587 f23d 69a5 e63d 6c43 3cbd
000001a0: 8b61 a0bc 77b8 79bd bce3 013e eea9 203e
000001b0: d410 063e a598 19be 038c 2cbe ba84 a2bb
000001c0: efb6 5fbd d628 7c3d e230 8bbe 846f d43d
000001d0: e825 2f3d f26f 753e 111b 0e3c ad9a 8c3c
000001e0: 096d b43a 91cf 793d c369 93bd 9575 5d3d
000001f0: a7df 973d 9dec 9d3d 34df 363e 2b0d 09bd
00000200: 48c6 75be b03d 28be df73 2dbe cd7e d83d
00000210: 6ba4 d73d 87f1 ef3d d264 8abe cd6a 2f3e
00000220: 0dc1 633e adf1 d33d 6a82 653c b23e b63d
00000230: aa9a a93d 33a8 87bc 6c09 ecbe 6713 c9bc
00000240: 3ca8 6e3e c072 f13d ef26 403c 873f 93bd
00000250: 2f51 05bc 4f18 97bc 5a3c dbbe 6ba4 40bd
00000260: 3d64 c93d 7fae 4d3d c41c 513d 7372 e13d
00000270: 5bb5 d03d e2c6 d83c 56f0 59bc f0ca ca3d
00000280: b919 9c3d 04f0 c3bd 11d6 fa3d e3b0 04bd
00000290: e5f7 7b3d c5d0 883e fc8d 54bd 1f40 95bb
000002a0: d951 1dbf 6d83 183e 6394 7ebe a3e6 203e
000002b0: 2159 be3d 1e88 a93d 3c23 ba3d d37c 7cbe
000002c0: a132 ad3c f55b 24be ccdb 5d3d 24bd dc3c
000002d0: 2c65 ea3d 4c4b 54bd cf0e 343e 2c92 97be
000002e0: 2949 13bf 4324 85be f1d5 c0bd 8c18 213e
000002f0: d0bb e1bc ebf0 083e e83d ba3d 53e5 9c3e
00000300: 02a8 fabd a45e 9f3e 873b 0dbe 6cf4 083e
00000310: 4355 743e 309e b03e 49a8 313e d2b9 5ebe
00000320: 9888 4c3d a259 513e 1449 9abe bc86 853e
00000330: 6b4c be3c bccc fc3c 18a0 833d d6bf 843c
00000340: f2e9 7c3e 3cc7 b7bd 0d3a 1a3e 033d a9bb
00000350: 02e9 2d3d 2dce 43bd 092d 5bbe 9e4a 32be
00000360: e6b3 e4be 1ae3 bc3d 4750 8dbd 5134 2bbe
00000370: 83fb a6bd 9da7 71be 68bc 103e 284c 3b3e
00000380: be49 9b3d 87a3 6dbe e114 b13d 0fa2 983c
00000390: 7635 32be 0c56 483d 4b89 a7bd d517 e2bd
000003a0: ddc9 a1bd ed46 113e 5aa7 023d 2c13 03bf
000003b0: 793d 083e bafe 233c 0415 383d 9498 463e
000003c0: 9c61 1a3d 47d6 433d 61e8 623c 8f0a f83d
000003d0: dbb2 5abd 92fe 4abe 68a7 babe d5b4 4a3d
000003e0: 268d f23c 5508 f83d 3cdb 693e 908f fe3d
000003f0: 7792 72be b25f e73d 93bf ad3c 04e7 c13c

model.6.bias f4 [20]
0.12396967 0.12469035 0.013857179 0.04538528 -0.034828722 0.13367517 0.022229318 0.03093788
0.12710403 0.044988416 0.06319851 0.073222786 0.002311746 -0.04835535 -0.03735943 0.041474767
0.03034771 -0.011643987 -0.0045032124 0.0014429679
00000000: cfe3 fd3d a75d ff3d 3909 633c eae5 393d
00000010: 90a8 0ebd 25e2 083e 421a b63c 7071 fd3c
00000020: 8f27 023e c645 383d 386e 813d d4f5 953d
00000030: a980 173b 4210 46bd 3406 19bd 72e1 293d
00000040: c39b f83c 6cc6 3ebc af8f 93bb f821 bd3a
