best_simple_rsvp_model.pth (torch, 144158 bytes, 6 tensors)

model.0.weight f4 [128, 200]
000000 d2 1d c2 3c 70 a9 55 be 8b c1 42 3d 39 69 a1 bd
       0.02369586 -0.20865417 0.04754786 -0.07881398
000010 41 0d a0 3d 6d 8d 29 3d 04 fb da bc 7e 59 dd 3b
       0.07815028 0.04139464 -0.026731022 0.006755053
000020 f4 44 47 3d 98 0a c2 3b 74 f3 4e 3d af a6 d9 be
       0.048649743 0.005921673 0.050525144 -0.42509982
000030 47 54 7a 3d b3 f9 66 3e 3a 57 ae b8 07 f3 3e 3d
       0.06111553 0.2255619 -8.313214e-05 0.046618488
000040 59 eb 2e 3d f9 6a 5c 3c 58 4f 53 be 73 b7 86 3b
       0.042704914 0.013453239 -0.20635736 0.0041112243
000050 be fa d7 3d 9d 80 77 be 00 50 e3 3d c4 96 54 3e
       0.10545872 -0.24170156 0.11099243 0.20760638
000060 98 9c 92 3c 93 a0 ba 3d dd 06 bf 3d cc 81 e2 bc
       0.017896935 0.09112658 0.09327481 -0.027649783
000070 7c d1 41 be d5 49 84 3d 15 01 34 be e8 fc bc be
       -0.18927568 0.06459395 -0.17578538 -0.36911702
000080 12 81 86 3d 3f 4c 3a 3e 08 2f 00 3e 28 9e 7b 3d
       0.06567587 0.18193148 0.12517941 0.061430126
000090 15 96 a7 bc 1a 02 a7 bd b5 88 0a 3e dc eb 66 3d
       -0.020457307 -0.08154698 0.13528712 0.056377277
0000a0 a7 14 99 be 28 e7 bf 3d 15 a2 a0 3c 42 b8 cd be
       -0.2989857 0.093702614 0.019608537 -0.4017964
0000b0 1c 55 80 3d 10 6e c3 bc 25 9d 0e bc 9e 67 32 bd
       0.06266233 -0.023856193 -0.008704458 -0.04355585
0000c0 dc 63 84 be 31 9d 60 3d 0d a5 2a bd 1a 0d 07 3e
       -0.25857437 0.05483741 -0.04166131 0.13188592
0000d0 37 68 45 bd c5 3c b5 be 74 56 fb bb 02 d2 0b bd
       -0.04819509 -0.35397926 -0.007670218 -0.034135826
0000e0 e9 44 26 bd 5c c5 9f bc 09 c2 35 bc 74 39 25 3d
       -0.04059306 -0.019503288 -0.011093625 0.040337995
0000f0 54 57 43 bd f7 29 83 bd df 65 42 bc 3a 2f 41 be
       -0.047690704 -0.064044885 -0.011865108 -0.18865672
000100 dd 08 09 bb ed 70 aa 3d 37 31 bb bd 65 62 9f bd
       -0.0020909824 0.0832232 -0.09140246 -0.07782439
000110 0f 2a b2 3d 6a b3 c1 bb 89 88 e4 bd 7b a8 c4 3d
       0.08699428 -0.0059112804 -0.111588545 0.096024476
000120 06 00 bf bc fb 0c 81 3d 94 46 42 3d 6f 4f 3b bd
       -0.02331544 0.06301304 0.04743059 -0.04573005
000130 91 9b e7 bd 80 a6 01 3d d2 2c 3c 3d 1a 75 65 bd
       -0.11308969 0.031652927 0.04594118 -0.05601988
000140 32 7b 80 3c 63 d0 c2 3d 80 ba f6 3c 6e a3 a3 be
       0.015683744 0.09512403 0.030118227 -0.31960624
000150 1d 06 40 3d a9 db 07 be 97 3a be 3d 20 41 fc bc
       0.04688083 -0.13267387 0.09288519 -0.030792773
000160 7f e6 11 3d fc 12 03 3e 66 65 c8 3d 20 03 12 3e
       0.03562021 0.1280021 0.09784965 0.14259005
000170 9a a0 49 bc b8 69 8b bd 5d ff c3 3c 61 dd 26 3e
       -0.012306357 -0.068072736 0.023925478 0.16295387
000180 7d 5b 72 bd ed a8 ac bd b9 90 8e 3e f8 0d c1 3b
       -0.05916928 -0.084306575 0.2784479 0.005891558
000190 c2 d9 41 3b c4 59 0a bf f5 f1 84 3c a5 b4 93 3e
       0.0029579257 -0.5404322 0.016228655 0.28848758
0001a0 c7 f7 f8 3c f1 ae 11 bd 8d 4e e2 bb 8a 4a b9 3d
       0.030391587 -0.035567228 -0.0069063366 0.0904742
0001b0 e4 5d 57 3e 31 0c e3 bc 7e d0 f6 bb 40 fc a4 bd
       0.2103191 -0.027715774 -0.0075321784 -0.08055925
0001c0 51 0f 37 3c 1d 51 b5 bd 54 a7 bd 3c 06 fc 67 3d
       0.011173085 -0.08853362 0.023151077 0.056636833
0001d0 e2 f8 9f 3d 70 2c e2 bc 59 c3 bc bc 10 40 cf 3d
       0.078111425 -0.02760908 -0.023042368 0.10119641
0001e0 57 8e 02 be c6 1a 16 be 96 7b c7 bd f1 98 39 be
       -0.12749611 -0.14658651 -0.09740369 -0.18124749
0001f0 b6 df 7f 3d 2d 5f 4e 3c 56 6a b0 bd f5 9e 02 bc
       0.062469207 0.012595934 -0.08614032 -0.007972469
000200 ba cd 10 be 6c 99 4e bd fa 0c 62 bc 1a 31 49 3d
       -0.14140978 -0.050439283 -0.013797039 0.049119093
000210 88 c0 1a be 09 15 fc bd a4 20 35 be 6f 6d 33 3d
       -0.15112507 -0.123087 -0.17688233 0.043805536
000220 5a 20 65 be 1a 78 3d be f3 05 91 bd 74 dd 31 be
       -0.22375622 -0.18502846 -0.07081213 -0.17369634
000230 41 45 fd bb 45 ea 27 bd 40 8f 86 bd 56 02 0b bd
       -0.007729203 -0.0409949 -0.065702915 -0.033937775
000240 ca 70 80 bd 01 b4 a4 bc 43 e1 df bd 1a 6f ef bd
       -0.06271513 -0.020105364 -0.10931637 -0.11691113
000250 d3 45 e2 bc 70 cf e5 bd 95 ba 76 bc 32 27 56 bd
       -0.027621185 -0.11221206 -0.015059133 -0.052283473
000260 3f 8a 98 3c 25 a3 a0 bd 61 45 42 bc 72 56 80 bc
       0.018620608 -0.07843617 -0.0118573615 -0.01566622
000270 68 c5 03 bd 23 ce 6d bd 64 8e cb bc b4 b6 df 3c
       -0.032170683 -0.058057915 -0.02484817 0.0273088
000280 a9 c1 42 bd 83 ce 36 bd b3 15 fa bb 65 a6 86 bc
       -0.04754797 -0.04463054 -0.0076319813 -0.016436765
000290 28 27 dd bd 9c e4 bd bc 47 cc eb bd 30 9a 91 bd
       -0.10798484 -0.023180299 -0.11513572 -0.07109487
0002a0 3c 4c 5b 3c 38 e0 df bd a2 dd 22 bd df fb 80 3d
       0.013384875 -0.10931438 -0.039762147 0.062980406
0002b0 a9 d0 4b bc 42 b0 8a bd d4 f5 25 3c 18 ed 92 bd
       -0.012439885 -0.067719 0.010129411 -0.07174128
0002c0 7f 52 a7 bd 1a 59 49 bd f1 e8 04 bd 3d 82 a8 bd
       -0.08170032 -0.04915724 -0.032448713 -0.08227966
0002d0 5a 1d d2 bc 8a 73 6e 3d 9f 9f 6d bd 20 35 0d bb
       -0.025648762 0.058215655 -0.058013555 -0.0021546558
0002e0 a9 8d 2c bd b4 9e 7e bc d8 e3 32 3d 03 1f 8d 3d
       -0.042127285 -0.015540767 0.04367432 0.06890681
0002f0 9c c4 ae 3c 19 88 86 bd 47 eb 08 bd 6b 6a 25 bd
       0.021333985 -0.06568927 -0.033427503 -0.04038469
000300 d8 f2 3d 3c f8 5f 26 bd 8d 8c 07 bd 6c 09 ae bc
       0.011593543 -0.040618867 -0.033093024 -0.021244727
000310 c4 b9 40 bd 9e 16 44 3d dc e8 45 3d 60 1d 22 3c
       -0.04705216 0.047873132 0.048317775 0.009894699
000320 45 1c db 3c df d7 89 3e 1c 67 7d bd 42 f4 5a be
       0.026746878 0.2692251 -0.06186591 -0.2138224
000330 d1 b8 b0 bc ce 79 ad 3c 44 c5 fa bd 98 63 63 bd
       -0.021572502 0.021176245 -0.12244657 -0.055514902
000340 d0 c0 45 3e 83 12 d4 3c 3b 41 a3 bc c5 7d 8f be
       0.19311833 0.025887733 -0.019928565 -0.28025642
000350 2a 2d f6 3d 6b d6 68 3e cf bd 21 3d 03 35 8b 3c
       0.12020333 0.22738044 0.039487656 0.016993051
000360 a3 b9 a2 bc bc cd c7 bb 57 e3 0e 3e fb 6a 6e 3c
       -0.01986391 -0.0060975235 0.13953911 0.014551873
000370 76 5b e0 bd 8d 1c 81 bc bb 71 3a bd c7 de 26 3e
       -0.10954945 -0.015760684 -0.045518618 0.1629592
000380 57 e9 0a 3d 33 91 88 3c fb de 94 bc 64 b1 0e bd
       0.033913936 0.016670799 -0.018172732 -0.03483714
000390 db e7 3e be af d0 95 bd 31 41 35 bd ed de bb bd
       -0.18643133 -0.07315194 -0.044251624 -0.09173379
0003a0 93 d0 3f bd 4b e9 d4 3c ea c7 91 3c 76 ab 03 3c
       -0.04682977 0.025990149 0.017795522 0.008036485
0003b0 a4 b7 5e bc 33 01 10 bd 49 b7 c7 be 49 39 21 3d
       -0.013593588 -0.035157394 -0.39007023 0.039361272
0003c0 12 88 54 3d 5f 95 1a be 93 72 b9 3d bb ac a8 3c
       0.05188758 -0.15096043 0.090550564 0.020590177
0003d0 80 68 c7 bd 94 e9 d0 3c a3 fc 94 3d dc ad 03 bd
       -0.09736729 0.025502004 0.07274749 -0.032148227
0003e0 d7 2b 85 bc a1 ce e8 3c 9f c0 62 bd 2b f1 06 3e
       -0.016256256 0.02841884 -0.05535948 0.13177936
0003f0 05 13 24 3e 09 b5 11 bd 1e cb cd 3c dc 63 a8 bd
       0.1602288 -0.03557304 0.025121268 -0.08222172

model.0.bias f4 [128]
000000 61 79 02 bd 87 eb 20 bd be db 98 bd 30 ad bf bc
       -0.031854037 -0.039287116 -0.074637875 -0.023398012
000010 cf 64 55 bd ab 76 09 3c 56 c6 23 bd 2a 1a 8b 3d
       -0.05209809 0.008390109 -0.03998407 0.067921
000020 18 39 40 3d 14 13 e0 bd 18 6f 80 3c d7 db 03 bd
       0.04692945 -0.10941139 0.015677974 -0.032192077
000030 74 88 57 bd b2 93 b4 bd 05 ca 7d 3d f3 92 00 bd
       -0.052620366 -0.08817233 0.06196024 -0.03139014
000040 3b 6b 8a bd dc 05 aa 3b 61 74 0c 3d f2 d4 11 3d
       -0.06758734 0.005188687 0.034290675 0.03560347
000050 a9 c6 00 3d 7e 24 cc 3c fe 8b 4b bd 69 54 74 3c
       0.031439457 0.024919745 -0.049694054 0.014912703
000060 ef 28 82 bd ed b6 05 bc 77 2e 38 bd e6 1a aa 3c
       -0.06355464 -0.008161289 -0.044966187 0.02076478
000070 43 b3 90 bd b0 0e 3c 3d 58 52 16 3c 7f c8 45 bd
       -0.070654415 0.045912445 0.009174906 -0.04828691
000080 34 59 e1 bb b5 29 15 3d 6a 45 03 bd 8a a5 27 bd
       -0.006877089 0.036416728 -0.03204862 -0.040929355
000090 e6 4e 5c bd a8 d7 5c bd 59 b4 15 3c 61 21 71 bb
       -0.05378618 -0.053916603 0.0091372365 -0.0036793577
0000a0 36 57 c5 3c e0 dd 47 bd 1d 76 17 bb c0 5d 16 bb
       0.024089437 -0.04879558 -0.0023111172 -0.0022944063
0000b0 cc d6 81 3d c8 59 8e bd b4 e3 13 bc af 36 b0 bc
       0.063397974 -0.06950718 -0.009026457 -0.02151045
0000c0 79 2c 81 3d 24 c6 23 3d 4d 55 39 bc 3c 74 aa b9
       0.063073106 0.039983884 -0.011311841 -0.00032511528
0000d0 82 21 31 bd 28 1a ad bc 18 43 9e bd 32 c8 37 bc
       -0.043244846 -0.021130636 -0.07727641 -0.011217164
0000e0 ad 6c 3e bd da 25 f3 bc 6c cd 52 3a 18 4d 3c bb
       -0.04649036 -0.029681135 0.00080414745 -0.0028732475
0000f0 56 d7 1c 3d 3b b8 43 3c c0 d9 40 bd 97 54 7d bc
       0.038291298 0.011945779 -0.047082663 -0.015462062
000100 4c a5 f9 bc 83 35 82 bd 11 4c 78 bd d1 73 ec 3b
       -0.030474328 -0.06357863 -0.060619418 0.007215955
000110 20 37 94 bd 1d 03 a9 3d e3 da 36 3c 5a 39 7f 3d
       -0.07237077 0.08252547 0.011160585 0.062310554
000120 72 f8 34 3d 3c 64 70 3c 49 86 97 bd 58 8f 3f bd
       0.04418225 0.014672335 -0.0739866 -0.046767563
000130 b4 7e 5d 3d 39 47 a7 bd c7 65 83 3d 34 01 82 3c
       0.05407591 -0.081678815 0.06415897 0.015869714
000140 d5 45 8c bd 85 cb 4e 3c d6 48 d7 bb 72 ef 0a 3b
       -0.06849257 0.012621765 -0.006569962 0.002119985
000150 8c 6f a7 3c 6c e2 1c bd 40 45 1c bd 7f f8 65 bc
       0.020438932 -0.03830187 -0.03815198 -0.014036297
000160 38 5c 05 bd 8b 47 82 3c 32 19 4b 3d c4 99 aa ba
       -0.03255865 0.015903255 0.049584575 -0.0013015796
000170 57 53 65 3d 2f 19 32 3d 38 b1 ea bc 7a 2e 47 bd
       0.055987682 0.04348105 -0.028648958 -0.048628308
000180 58 9d 02 3c 84 4b 41 bc 00 4a 33 bd a1 00 d2 bc
       0.007972084 -0.0117977895 -0.043771744 -0.025635066
000190 d4 ce bd 3c a2 c8 07 bd b1 f3 14 3c 18 ed 63 bd
       0.023169912 -0.033150323 0.009091304 -0.055646032
0001a0 50 27 a6 bd 2a 16 1c 3d 47 46 fd 3c 8d d8 81 bd
       -0.08112967 0.038107075 0.0309173 -0.06340132
0001b0 d2 e8 9e bb 83 c7 de 3b be 81 72 3c ad 52 86 3b
       -0.0048495317 0.006798686 0.014801441 0.004099211
0001c0 e0 73 39 bd 0f 9e 53 3d 3d be 2f 3d ce 0d 3c 3d
       -0.045276523 0.05166441 0.042906035 0.045911603
0001d0 17 02 00 bd ee 1d 4f 3d d0 e9 e5 bb 1c b3 7e bc
       -0.031251993 0.050565653 -0.007016398 -0.015545633
0001e0 73 d2 92 3b a7 39 3b 3d 5e 91 9f bd 82 c1 03 3c
       0.004480654 0.04570928 -0.077913985 0.008041741
0001f0 1e 0f 90 bd a8 c7 bb 3c b3 d6 4f 3d 30 13 77 bd
       -0.070341334 0.022922352 0.050741863 -0.060321033

model.3.weight f4 [64, 128]
000000 90 5c 20 3e c5 97 3b bd 28 c8 6d bd 0a 7c 20 bd
       0.1566031 -0.045799036 -0.058052212 -0.039180793
000010 f6 b6 8e bd 03 97 fc bd 62 6e cd bd 2d 28 94 bd
       -0.06968491 -0.12333491 -0.100308195 -0.072342254
000020 5d fb 64 bd 32 11 04 bd 6f fd a3 3d db 06 2a bd
       -0.05590378 -0.03224296 0.08007323 -0.041510444
000030 f0 84 3d bc 83 a2 5b 3d c9 2b 42 bd 8a f8 23 be
       -0.011567339 0.05362178 -0.047405038 -0.16012779
000040 73 8a 82 be 20 70 e4 3c 21 dd 6f 3d 97 a9 12 3e
       -0.25496253 0.027885497 0.058560494 0.14322506
000050 33 3f 13 3d 1e fb ed 3c 64 75 06 bd b2 6c 14 3d
       0.035948943 0.029050406 -0.032826796 0.036236472
000060 80 8f 85 3d 62 f5 48 bd 5e dc 20 3d 53 84 8c 3d
       0.06521511 -0.04906214 0.03927266 0.06861176
000070 04 b2 ae bd 2f 51 21 bd c4 6d 9a bd 7c 50 67 3c
       -0.085300475 -0.039384063 -0.075404674 0.01411831
000080 08 42 a7 3c 27 e8 2f 3d a2 e4 ca 3d d2 a0 47 3d
       0.020417228 0.042946007 0.099068895 0.048737355
000090 0d 41 8d be 48 19 20 bc 59 cc 26 bd 5d 07 20 3d
       -0.27588692 -0.0097716525 -0.040722225 0.039069522
0000a0 18 72 61 3e fe a4 a9 bd 66 fc 88 be b8 d7 70 3c
       0.2201618 -0.08283423 -0.26755065 0.014699869
0000b0 b7 dc 9a bd 35 81 b1 bd 03 6a 95 bd 01 17 a9 bd
       -0.07561629 -0.086672224 -0.07295611 -0.08256341
0000c0 84 fa 88 3d c9 42 91 3d 24 dc 24 3d 11 bf 05 be
       0.06688407 0.070928164 0.040249005 -0.13061167
0000d0 73 80 7a be 6a 12 18 3d c1 d9 50 3d 65 0d 84 3c
       -0.24463062 0.037126936 0.050988916 0.016119668
0000e0 7e 1c 15 3d 8f ac 85 3d f0 b2 af bc 46 4a 13 be
       0.036404125 0.065270536 -0.021447629 -0.14383802
0000f0 60 73 cd bb b0 96 63 3d 5d ee ed 3c 9a 54 43 3d
       -0.0062698573 0.05556363 0.029044325 0.047688104
000100 6a 2b 43 3e 34 79 e7 bc e6 d4 51 3d af cf c4 3d
       0.1905953 -0.028256036 0.051228426 0.09609925
000110 a5 00 41 3c a4 c4 19 bd 41 12 86 be 02 57 6b be
       0.011779939 -0.037541047 -0.26185802 -0.2298241
000120 44 7e ae 3d 88 52 8a bd b1 b0 b6 bc 79 bd e9 bd
       0.08520177 -0.06754023 -0.02230105 -0.11413092
000130 fc c1 25 3e e5 f0 3c 3b d1 5f 00 3e b8 6a af 3d
       0.1618728 0.0028830108 0.12536551 0.08565277
000140 f3 d0 4d bd 52 43 1f 3d 57 e1 37 be af 2f 2a 3e
       -0.050248098 0.03888256 -0.17957054 0.16619752
000150 18 35 2b 3e 3b ac 62 3e 8c a9 96 bc 60 62 24 be
       0.16719472 0.22136013 -0.018391393 -0.16053152
000160 c6 51 dd 3d ea 70 74 3c 01 29 30 3d 1f 68 cc 3c
       0.10806613 0.014919499 0.043007854 0.024951993
000170 8c 0c 3b bd 58 98 30 3e 4b 50 a7 3d 98 cb 46 3e
       -0.045666263 0.17245615 0.081696115 0.19413602
000180 35 7a b2 3d ee 7f 72 bd 8c e8 a3 bd 64 60 51 bd
       0.087147154 -0.059204035 -0.08003339 -0.051117316
000190 e9 32 e9 3c 88 69 21 bc d7 b6 95 3b f0 4b 0f 3d
       0.028466659 -0.009851821 0.0045689153 0.03498453
0001a0 19 94 8b bd a2 a9 99 bd 7b 55 68 bd 7c 32 c2 bd
       -0.06815357 -0.07503058 -0.056722146 -0.094822854
0001b0 5e 02 fe 3c 8a e8 90 be 03 1e c5 3b d6 63 01 3d
       0.031006988 -0.28302413 0.0060155406 0.03158935
0001c0 5f be 91 bd d7 d0 d6 3b a1 7b 04 bd bc d3 e0 3d
       -0.071163885 0.0065556574 -0.032344464 0.10977885
0001d0 1d 9e 1f bd f6 7e 33 bd ce 93 ad bd e0 29 e6 bb
       -0.038969148 -0.04382225 -0.08475457 -0.007024035
0001e0 16 01 01 be 9e 80 51 3d 99 95 c3 3c 79 19 3c 3e
       -0.1259807 0.05114805 0.023875045 0.18369092
0001f0 14 93 c0 3b 7a 38 c1 3d 9a 8c a9 3d e3 3b 9c be
       0.005876908 0.094346 0.08278771 -0.3051444
000200 86 56 44 be 45 52 e5 bd 35 34 a6 bd 14 10 d0 3c
       -0.19173631 -0.11197332 -0.081154265 0.025398292
000210 4a bd 30 3d b6 27 e4 3d 16 72 f2 3c 8e 46 b5 bd
       0.04314927 0.11140387 0.029595416 -0.08851348
000220 20 89 12 3e e0 1c 32 be 6a 52 17 3d df af 84 3d
       0.14310122 -0.17393827 0.03694383 0.06478857
000230 82 9c 2a 3d 03 58 39 3e ef c2 d0 bd 48 87 a9 3d
       0.041653164 0.1809998 -0.10193431 0.08277756
000240 3f 3e f8 bd c2 5d 92 bd 38 d8 30 3e 9d 73 28 bc
       -0.121212475 -0.07146789 0.17269981 -0.010281471
000250 68 70 05 bd f0 b7 06 3b 7b 37 a6 3d 95 7c 20 3c
       -0.032577902 0.0020556413 0.08116051 0.009795328
000260 6a b5 6a bd 3c ac 87 bd a0 25 e6 bb fa 85 c4 3d
       -0.057301916 -0.06624648 -0.007023528 0.095958665
000270 2c 39 b3 3c ed 18 93 3b 5c 20 90 3c 31 56 03 be
       0.021877848 0.0044890554 0.017593555 -0.12825848
000280 31 44 92 3d 61 31 4f 3d 56 62 e6 3d 5e 15 50 bd
       0.07141913 0.0505842 0.11249225 -0.050801627
000290 83 04 83 3d d7 a0 8c bd 63 f0 91 bd 02 12 90 3d
       0.06397345 -0.06866615 -0.07125928 0.07034685
0002a0 9b bf 02 be 87 ca 0f bd d7 9a 08 bd c8 c9 ee 3c
       -0.12768404 -0.035105255 -0.03335079 0.029148951
0002b0 15 59 78 3d 58 c5 36 bd 8f 7a 66 bc 4e 1a 90 bd
       0.06063183 -0.044621795 -0.014067306 -0.07036267
0002c0 a5 14 8e 3d 87 83 7a be 67 e3 a0 3d 6a ee cc bc
       0.069375314 -0.24464236 0.078558736 -0.025016028
0002d0 0f a3 ac 3d 81 55 98 3d cb fb bb bd 3d c0 84 bd
       0.084295385 0.074381836 -0.09178885 -0.06481979
0002e0 2a 3f b7 3d c6 52 6a 3d 97 04 bb bc 86 e0 a4 3d
       0.089475945 0.057207845 -0.022829337 0.08050637
0002f0 b4 34 cb bc 64 e9 86 bd 51 f5 40 3d 02 12 77 bc
       -0.024805404 -0.065874845 0.047108952 -0.015079977
000300 b8 50 83 3d 65 f4 33 bd 9a a3 35 3d d8 da 77 3d
       0.0641188 -0.043934245 0.044345476 0.06051144
000310 b4 1c 8d be 1b 20 90 bd 3e 87 16 3e ae 10 08 3e
       -0.2756096 -0.07037374 0.14700028 0.13287613
000320 cf 51 5e be e9 6f d0 3a 14 50 f0 3d ba 72 2d be
       -0.21710895 0.0015902492 0.11734024 -0.16938296
000330 d8 4a 96 3d 24 f8 b3 bc 22 df 18 3c 19 68 59 3c
       0.07338494 -0.021968909 0.009330543 0.013269448
000340 0f a6 8e bd 76 57 74 3d b8 90 37 3d 9f b7 07 3d
       -0.06965267 0.05965372 0.04481575 0.0331341
000350 83 2b 8c be 6a 30 c3 3a e8 fa 9a 3b 1d a0 6e be
       -0.27376947 0.0014891748 0.0047296174 -0.23303266
000360 f7 53 26 be d0 fd 2e 3c d0 9f 3c be 88 64 c7 3d
       -0.16242968 0.010680631 -0.18420339 0.09735972
000370 7f 1b 8d 3d 17 93 69 3d 60 35 22 bc 20 42 46 3d
       0.0689001 0.05702504 -0.009900421 0.048402905
000380 c2 16 be 3e a5 92 cd 3c 15 1c 4c be a0 06 af bd
       0.37126738 0.02509434 -0.19932587 -0.085461855
000390 d2 58 54 bd be 46 4d b9 a8 24 f3 3d a8 b5 7c bd
       -0.05184252 -0.00019576677 0.11872226 -0.06169668
0003a0 82 be 0c bd c8 90 6a bc 4a 2b 37 bd e4 49 c9 36
       -0.03436137 -0.014316745 -0.044719018 5.998869e-06
0003b0 c5 dc e4 ba cd 36 f8 3d dd 1e d1 bd 46 6e 99 bd
       -0.0017460814 0.121198274 -0.10210965 -0.07491736
0003c0 13 34 76 bd 0b 6c 68 bd 13 36 b4 bc 42 0e 0f be
       -0.060108256 -0.056743663 -0.02199844 -0.13970283
0003d0 66 6b a8 bd 21 1f 21 bd e4 f1 49 3d f7 fe 48 bd
       -0.082236096 -0.039336327 0.04930295 -0.04907128
0003e0 96 c1 a9 3d 64 fd fc 3d c1 71 2b 3d 10 a2 aa 3d
       0.08288877 0.12353018 0.04185653 0.08331692
0003f0 f3 01 a0 bd 58 8e 11 bd 3d 2c 9b 3d f7 0b 3a 3c
       -0.07812872 -0.03553614 0.07576797 0.011355392

model.3.bias f4 [64]
000000 8a e8 17 3e 65 fd 8f bc cb 73 87 bd 89 c3 1f bd
       0.148348 -0.017576883 -0.06613883 -0.039004836
000010 ce bc 31 3c 84 7f 70 3d ed 33 1d bc 95 59 d1 bb
       0.010848237 0.05871536 -0.0095949 -0.006388853
000020 3b d4 98 bd 61 b9 3a 3d 6e 18 8d bc 84 af 38 3d
       -0.07462355 0.045586947 -0.017223563 0.04508926
000030 b7 48 97 3c 84 fe cc bd 6b 44 70 bc 57 44 95 3c
       0.01846729 -0.100094825 -0.01466475 0.018221064
000040 ae e8 99 bd 5e 46 18 bc 3a 57 99 3d a5 0e a8 3a
       -0.07515083 -0.009294121 0.0748734 0.0012821747
000050 17 c0 b4 bc 5f c6 73 3c 93 d4 b0 3b 7e 23 96 bc
       -0.022064252 0.014878838 0.0053964346 -0.01832747
000060 6b 1a 69 3d 49 bd 44 3d 43 7b 18 3d 9e 80 b8 bd
       0.05690996 0.04803208 0.037226927 -0.09008907
000070 b3 2b 42 bd b8 45 aa bc 16 af 1d bd ad 77 2e bc
       -0.047404956 -0.020785198 -0.038497053 -0.01064865
000080 5b d1 4f bb f8 9c 1c ba 6f e2 a1 3d 19 bf b9 3d
       -0.003171048 -0.0005974318 0.07904517 0.09069652
000090 af 07 20 bd 63 dc cb 3b e8 93 91 bc 35 20 f8 bb
       -0.039069828 0.0062213405 -0.017770723 -0.0075721988
0000a0 cc c3 11 bc 0b 5e 8c 3d 7c bb a2 3d 64 94 8d 3c
       -0.008896779 0.06853875 0.07945916 0.017282672
0000b0 5f d8 9c 3c bc 03 41 3d 80 63 3d bb 0d 2d 88 3d
       0.019146143 0.047122702 -0.0028898418 0.06649218
0000c0 06 88 03 bd 50 ca 54 bd 98 06 7e 3d 3d 11 29 bc
       -0.032112144 -0.051950753 0.062018007 -0.010319051
0000d0 f2 ec a4 3d f1 ea 1c 3c 62 be 19 3c 5c 1a 21 3e
       0.08053006 0.009577499 0.00938377 0.15732712
0000e0 1a d7 cf bd 42 3f 2f 3d 12 ed f8 3c e4 1d 2c bd
       -0.10148449 0.042784937 0.030386481 -0.042020693
0000f0 2d 54 be 3c c0 2f 86 bd f7 04 9a 3d de 06 b6 3d
       0.023233498 -0.06552076 0.07520478 0.088880286

model.6.weight f4 [20, 64]
000000 b8 4c 86 3e 70 8c 40 3e ae 1d eb 3b 6a 24 66 3e
       0.26230407 0.18803573 0.007175169 0.22474828
000010 f3 3d 89 bd 1c 97 92 be 0e d4 04 be 78 c3 4c 3e
       -0.06701269 -0.28630912 -0.12971517 0.1999644
000020 27 ac 25 bf 3c e3 01 bc 43 ab 93 bd 55 95 d1 3d
       -0.6471581 -0.007927712 -0.072104 0.10233561
000030 20 83 05 be 61 b5 70 3d a1 28 44 be 0f 98 b6 bd
       -0.13038301 0.058766726 -0.19156124 -0.089157216
000040 06 89 8d be 21 34 4f 3d a7 7f 1b be 37 77 ef 3c
       -0.27643603 0.050586823 -0.15185414 0.02923165
000050 c9 6c ad be 6d e2 3a 3e b3 62 8c bc ec 37 1c bc
       -0.3387206 0.18250437 -0.017136907 -0.009534817
000060 81 ec 9f 3c 4e 42 9a 3d 9d 97 ee 3d af b2 00 bc
       0.019521954 0.07532178 0.11650012 -0.0078551015
000070 8d 0d 0f be 79 35 8c 3e ed c0 14 be 80 81 f6 bd
       -0.13970013 0.27384546 -0.1452672 -0.12036419
000080 bd be d9 be 87 49 02 3e 8e 4f 99 be ed f1 63 3e
       -0.42528334 0.12723361 -0.29943508 0.22260256
000090 9c a9 28 bf 64 cd 9d 3d 24 b0 b0 3c 0a e2 e8 3d
       -0.65883803 0.07705191 0.021568365 0.113712385
0000a0 93 dc d1 be 42 85 8b bd be 5f b9 3c ef b7 d5 3d
       -0.40988597 -0.06812526 0.022628661 0.10435473
0000b0 ba 34 98 bd 0d f7 2e 3d c7 b5 97 3d b8 be 83 3e
       -0.07431932 0.042716075 0.07407718 0.25731444
0000c0 1c 04 b9 be 2d d5 42 bf 78 2e 6e 3e f9 d9 90 3a
       -0.36135948 -0.7610653 0.23259914 0.0011051289
0000d0 6d d0 3f 3e 44 5e 34 3e bd 21 14 3d ed 5f 4b 3e
       0.18731852 0.17614084 0.036164988 0.19860812
0000e0 35 f7 ce 3c 9f 9c 04 be 9a 8f 95 3e 4f 20 13 bf
       0.025264362 -0.12950371 0.29211122 -0.57471174
0000f0 bc cf 1a bd d3 52 03 bf cb 8e 45 be b5 17 d4 3d
       -0.037795767 -0.51298255 -0.19292752 0.10356084
000100 30 23 6f 3e 50 2f 00 3e 7d 20 ed 3c e5 c6 3c bd
       0.23353267 0.12518048 0.028946156 -0.046088118
000110 5c 60 0f 3e c4 12 1f 3d c4 ef 05 be 6e 6b a6 be
       0.14001602 0.038836256 -0.13079745 -0.32503837
000120 15 00 b0 3c 36 64 b0 bd 63 6a 73 bd 64 9d f5 3d
       0.021484414 -0.08612864 -0.05942763 0.119929105
000130 56 91 6f bb 2b 78 14 bd d0 ec 4f be 41 6a c9 bd
       -0.0036555133 -0.036247414 -0.2030518 -0.098347194
000140 5d 86 0a 3e 08 06 66 3d f9 f4 36 3d cb 74 6f 3d
       0.13527818 0.056158096 0.044667218 0.05846099
000150 68 63 50 bd 02 ee 80 3e 57 67 78 bd e9 8a 56 3d
       -0.05087605 0.25181586 -0.060645428 0.05237857
000160 9f 9e 84 3d 26 c7 06 be cf be 37 3e b2 54 c4 3c
       0.06475567 -0.13161907 0.17943881 0.023966167
000170 ec 37 80 3b b9 a3 02 be 5b 5c bf b8 19 b1 bc bc
       0.0039129164 -0.12757768 -9.124792e-05 -0.023033665
000180 dc 3f 5c 3d 7e 63 3c 3e f4 14 c1 bd fb f3 5d 3e
       0.05377184 0.18397328 -0.094278246 0.21675102
000190 2d a7 1d 3d b3 d1 cd bc ec b9 a4 be 27 27 6d bc
       0.03848951 -0.025124406 -0.32173097 -0.014474667
0001a0 b2 67 a5 3c a4 00 f8 3d 72 94 93 3d 3f ec e7 3d
       0.020191047 0.12109497 0.07206048 0.11324357
0001b0 6f eb c6 3c f1 98 ac be 48 0e d4 3d 01 86 f9 bc
       0.024282185 -0.33710435 0.103542864 -0.030459406
0001c0 75 b7 4b bd 9d f9 24 bd 6d 7c 7d 3e 8b d0 57 3a
       -0.049735505 -0.040277112 0.24754496 0.00082326744
0001d0 0b 0d ae bb 6a 6b ff 3d 27 aa 64 bf 54 90 17 3e
       -0.0053116134 0.124716595 -0.8932213 0.1480115
0001e0 a6 a3 2e bc 72 d3 1c 3e dd e7 04 3e 3c 51 8c 3d
       -0.010659134 0.15315035 0.12979074 0.06851432
0001f0 88 17 aa be e2 a6 c9 3d c7 3b 71 bd aa 76 d8 3c
       -0.33221078 0.098462835 -0.0588949 0.026423771
000200 d9 2a ad be 55 58 03 be 48 6f bc 3c d4 15 69 3d
       -0.33821753 -0.12826665 0.023002282 0.056905583
000210 1d 8e 5e 3e 4c 2a 3c 3e bc 12 69 bd a2 89 ce 3d
       0.217339 0.1837551 -0.056902632 0.10084845
000220 b7 3b 5a 3a c4 bd 49 3c 80 68 02 bf 79 4b 8c 3c
       0.0008324938 0.01231331 -0.50940704 0.017125832
000230 a9 ed 46 bf eb 40 17 be e8 49 e5 3d dc 66 9a bd
       -0.7770639 -0.14770858 0.11195737 -0.0753915
000240 3d d3 55 bd 1e 06 b8 be ea bc f3 3b 26 67 2b be
       -0.052203406 -0.35942167 0.007438292 -0.16738567
000250 8a 22 01 be 9b 88 e2 3d 77 b6 12 bd 91 9b 5b 3d
       -0.12610832 0.11061212 -0.035818543 0.053615157
000260 08 e9 9a 3e 3b 08 71 3c 19 e7 af 3d 04 88 0f 3e
       0.30255914 0.014711435 0.08589 0.1401673
000270 04 bb fd bc 07 05 d4 3d d1 16 94 3c dd 98 10 3d
       -0.030972965 0.103525214 0.018077286 0.03530203
000280 39 a0 8d bc 37 58 31 3e d7 10 f8 3b d0 cc 6c 3e
       -0.017288314 0.17318808 0.007570367 0.23125005
000290 b6 dc aa 3d a4 d3 c9 bb f2 5d ee 3c 0b 1d 34 bd
       0.083428785 -0.0061592627 0.029097531 -0.04397301
0002a0 29 dc 72 be 94 d0 09 3e bc 5f 55 bd b3 cb 60 3e
       -0.23716797 0.13458472 -0.052093253 0.21952705
0002b0 02 01 71 3c 0d 0e 0b 3e b5 31 1a 3d 78 49 f2 3d
       0.014709713 0.13579579 0.03764506 0.11830419
0002c0 ee 7c af 3d 8f d0 90 3e 6c 5d a1 3d 1e 49 8a be
       0.0856875 0.28284118 0.07879147 -0.2700891
0002d0 7c 7d 1a bd 87 e4 62 bd e7 e0 f1 3d d5 73 0a 3e
       -0.037717327 -0.055393722 0.11810475 0.13520749
0002e0 8e bf d1 3d e8 d0 79 3d 1d 69 fc 3d 67 4e 85 bd
       0.10241614 0.060990244 0.12324736 -0.06509095
0002f0 a8 66 73 3d d9 b1 90 bc 51 35 86 be e4 0a c8 3d
       0.059424073 -0.01766293 -0.26212552 0.09767702
000300 66 62 0c 3e 48 40 aa be cb 67 1d be ff e1 15 bc
       0.13709411 -0.33252168 -0.15371625 -0.00914812
000310 52 63 a3 bc 90 4c 6a 3e 90 7a a2 3d 5e 21 3a 3d
       -0.01994482 0.22880769 0.07933533 0.045441978
000320 4d 6a 89 bd 5b bd 0a 3e 30 8a 3d bc 63 66 2a 3d
       -0.067097284 0.13548796 -0.011568591 0.04160155
000330 fa ef 2f 3d c4 2e 94 3d bc fe 4c bd 73 b2 37 bd
       0.04295347 0.07235482 -0.05004762 -0.044847917
000340 d9 8d b3 be 90 b5 10 3e f2 23 b6 be 4b 04 39 3e
       -0.3506916 0.1413176 -0.355743 0.18068044
000350 38 b7 31 bd 97 a8 17 3e 5f f2 96 bd be 4e 26 be
       -0.04338762 0.14810406 -0.07370447 -0.16240975
000360 fe 33 77 3e 13 b7 c8 3c 63 0c 97 3e a2 11 d4 be
       0.24140927 0.02450136 0.29501638 -0.41419703
000370 64 26 5c 3d 30 73 58 3d ec de fa bb be 73 fe bd
       0.05374755 0.052844226 -0.007655969 -0.1242442
000380 fa 81 43 3e ab cf 5d be 00 d5 1f bc df 0f 45 3e
       0.19092551 -0.2166125 -0.009755373 0.19244336
000390 6d a5 7d 3d 89 57 62 3d ce ea 01 bd 56 1c 49 be
       0.06192534 0.05525926 -0.031718068 -0.19639716
0003a0 8d 56 28 3d c0 30 3a 3e 35 2b e2 3d c9 f7 35 3e
       0.041098166 0.18182659 0.11043397 0.17770304
0003b0 98 3c cd be 43 97 ec 3d eb 98 22 3e fe 03 18 be
       -0.40085292 0.115522884 0.15878646 -0.14845273
0003c0 28 fd eb 3d 42 62 8c bd e0 85 3d 3e 4a 8c 01 be
       0.11522895 -0.06854679 0.185081 -0.12651172
0003d0 81 50 2c be 58 b4 13 3e 5b 6a 0d 3e a2 ad 39 3e
       -0.16827585 0.14424264 0.13810103 0.18132642
0003e0 d6 f8 67 bd 4e 81 7b bd 6e bc 03 bd b7 7f 19 bd
       -0.056633793 -0.06140261 -0.032162122 -0.037475314
0003f0 5a d0 0c 3e 6f 1d 1d 3d 3a 35 a8 3d 8c fa 51 be
       0.13751355 0.03835815 0.08213277 -0.20505732

model.6.bias f4 [20]
000000 87 4d 6e 3e e3 d6 d9 3d 71 8e 87 3c 3d a8 a4 3d
       0.23271762 0.106366895 0.016547414 0.080399014
000010 8e 61 6f bd d9 a6 26 bd ec e9 78 3c 3a a2 77 3d
       -0.058442645 -0.040686462 0.01519249 0.060457446
000020 f6 5a d0 3c ac fc ba 3d a6 c6 2d bd d9 3b 93 bc
       0.025433999 0.091302246 -0.042425774 -0.017972874
000030 c0 14 2a bc b2 d8 04 bc bf a2 06 bd 9b b5 c5 3c
       -0.010380924 -0.008108305 -0.03287005 0.024134448
000040 30 dc 76 3c 4c 76 07 ba 97 dd fe 3a 63 dc 30 3b
       0.015067145 -0.0005167469 0.0019444701 0.002698683
